Romeo_Best_TFT_North.pth (torch, 199318 bytes, 184 tensors)

weight f4 [8, 1]
0	0xbf2f7a32	-0.6854583
1	0x3cb7fc80	0.022459269
2	0xbed5e450	-0.4177575
3	0x3f132346	0.574757
4	0x3f5d725a	0.8650261
5	0xbf00126a	-0.500281
6	0xbf371df0	-0.71530056
7	0xbea32a14	-0.3186804

bias f4 [8]
0	0xbf42aa38	-0.76040983
1	0x3de6de59	0.11272878
2	0xbf4ccd98	-0.8000121
3	0xbf253f23	-0.64549464
4	0xbed279e4	-0.4110862
5	0xbddf9f37	-0.1091904
6	0x3f4296a2	0.760111
7	0xbf6c65b8	-0.9234271

weight f4 [8, 1]
0	0xbe75b218	-0.23993719
1	0xbf16a940	-0.58852005
2	0xbf0315c0	-0.5120506
3	0xbe7d93e8	-0.24763453
4	0x3e981a5c	0.2970761
5	0xbf022a9a	-0.50846255
6	0x3f4e779a	0.8065125
7	0xbec5377c	-0.38518894

bias f4 [8]
0	0x3e862d8f	0.26206633
1	0x3f0ddcc2	0.55414975
2	0xbf72cadd	-0.94840795
3	0x3f442e46	0.7663311
4	0x3f5842ec	0.84477115
5	0xbf72dc8c	-0.9486778
6	0x3e7a2b78	0.24430645
7	0xbf0b5568	-0.54427195

weight f4 [8, 1]
0	0xbf13bd96	-0.5771116
1	0xbdfe0f20	-0.124052286
2	0xbe870318	-0.26369548
3	0xbf3b5b0c	-0.731858
4	0x3ec37818	0.38177562
5	0xbe1ee9c0	-0.15518856
6	0x3f1d72f0	0.61503506
7	0xbea94138	-0.3305757

bias f4 [8]
0	0x3f4f7821	0.8104268
1	0x3f3865c6	0.72030294
2	0xbf3dfb0a	-0.7421118
3	0xbf2bc3b0	-0.6709547
4	0x3ec3a684	0.3821298
5	0x3e2fa98a	0.17154518
6	0xbd6e7b90	-0.058223307
7	0xbf6a5770	-0.9153967

weight f4 [8, 1]
0	0x3cd7a7c0	0.026325107
1	0xbf50cacc	-0.81559443
2	0xbf6b7876	-0.91980684
3	0x3f24c7ba	0.6436726
4	0x3e76fe28	0.2412039
5	0x3f5728ec	0.84046817
6	0x3f486ede	0.7829417
7	0xbf6a852e	-0.91609466

bias f4 [8]
0	0x3f102d8a	0.5631949
1	0xbc0e870f	-0.008699193
2	0xbe8150b4	-0.25256884
3	0xbc3c9b58	-0.011511646
4	0xbeb029ad	-0.34406796
5	0x3f48d865	0.7845519
6	0x3f7ce90c	0.987931
7	0xbf4c95d1	-0.799161

mask f4 [16]
0	0xbb95ad3a	-0.0045677694
1	0xbb0e340e	-0.0021698507
2	0x3a8ec228	0.0010891603
3	0xb8f86f54	-0.00011846298
4	0xbaa21602	-0.0012366178
5	0x3bcae6ec	0.006192079
6	0xba6c586a	-0.000901586
7	0x3c04e8d1	0.008112148
8	0xba612b1e	-0.0008589494
9	0x3b23db6a	0.0025002607
10	0xbb61e3ac	-0.0034467978
11	0xb8828ddd	-6.225307e-05
12	0xbb489646	-0.0030607148
13	0xbc207630	-0.009793803
14	0xbb77112c	-0.0037699444
15	0x3c0f7a08	0.008757122

weight f4 [16]
0	0x3f7eacd6	0.99482477
1	0x3f7fd52a	0.9993464
2	0x3f828b02	1.0198672
3	0x3f7ff20e	0.9997872
4	0x3f7fbd8a	0.9989859
5	0x3f80e615	1.0070215
6	0x3f7fed05	0.9997104
7	0x3f808f2b	1.0043691
8	0x3f802296	1.0010555
9	0x3f7f0bf8	0.9962764
10	0x3f808718	1.0041227
11	0x3f8005f6	1.0001819
12	0x3f7db216	0.9909986
13	0x3f7a18bc	0.9769399
14	0x3f808e9e	1.0043523
15	0x3f8179dc	1.0115314

bias f4 [16]
0	0x3b55bbe1	0.0032613205
1	0x3b99ac0c	0.004689699
2	0x3cb102e2	0.02160782
3	0xb8eb7829	-0.00011228055
4	0x3aa3f4de	0.0012508889
5	0xbbe19802	-0.006884576
6	0x3a91d61e	0.0011126434
7	0xbc4bfdb3	-0.012450623
8	0x3b1d921c	0.0024043387
9	0xbc106194	-0.008812327
10	0x3c2f5f0a	0.010703811
11	0x39bf5f2e	0.00036501273
12	0xbbb68d3d	-0.005571036
13	0xbc575e3a	-0.013145024
14	0x3c549d26	0.01297692
15	0xbc02695a	-0.007959688

weight f4 [8, 8]
0	0x3f5d5b1c	0.86467147
1	0xbf34663c	-0.704685
2	0x3e8c2372	0.27370793
3	0x3e2ad6fb	0.16683571
4	0xbf094e05	-0.53634673
5	0x3e688660	0.2270751
6	0xbeeaef41	-0.4588566
7	0xbef2e1c1	-0.47437862
8	0xbe8fc21a	-0.28077775
9	0x3efd2d4e	0.49448627
10	0xbf0b2cce	-0.5436524
11	0xbeff0b94	-0.4981352
12	0xbf0f0322	-0.55864155
13	0x3f5e2e14	0.8678906
14	0xbe36afda	-0.1784052
15	0xbf95e79c	-1.1711307
16	0xbefd21e7	-0.49439928
17	0xbe1daf80	-0.15398979
18	0x3f217702	0.63072217
19	0xbeddc338	-0.43313003
20	0xbfb452f4	-1.4087815
21	0xbf732e76	-0.9499277
22	0xbe664f81	-0.22491266
23	0x3e4eb3b1	0.20185734
24	0xbf4befb2	-0.7966262
25	0x3ec373f0	0.3817439
26	0xbe9a3aae	-0.30122894
27	0x3f4285f6	0.7598566
28	0x3e937356	0.28798932
29	0xbeb5950f	-0.35465285
30	0x3edac0d0	0.4272523
31	0x3f0daade	0.5533885
32	0xbe8e943f	-0.27847478
33	0x3d80db13	0.06291785
34	0x3eb7ddf2	0.35911518
35	0xbefd3ca2	-0.49460322
36	0x3eac6830	0.3367324
37	0xbe4248c8	-0.18973076
38	0x3bba28e6	0.005681145
39	0x3f14cdcc	0.5812652
40	0x3f31e546	0.6949047
41	0xbe99ff58	-0.30077624
42	0xbeb46bb2	-0.35238415
43	0xbf2d50ea	-0.6770159
44	0xbeae6a08	-0.3406527
45	0x3de390ae	0.1111158
46	0xbf6e477c	-0.93077826
47	0xbefad9a0	-0.4899416
48	0x3ee89de0	0.4543295
49	0xbe8a2b46	-0.2698614
50	0x3d403e40	0.046934366
51	0xbc8dbf8e	-0.017303254
52	0xbcc61faa	-0.02418502
53	0xbdcca044	-0.09991506
54	0xbeaaa5bc	-0.3332957
55	0xbe8766ab	-0.26445517
56	0x3dfd9f4a	0.123838976
57	0x3f0fe390	0.5620661
58	0x3a475e52	0.00076053024
59	0x3e3f5e28	0.18688262
60	0xbecac408	-0.39602685
61	0xbf78bc35	-0.9716218
62	0xbf2464b7	-0.6421618
63	0x3eeb5de6	0.45970076

bias f4 [8]
0	0xbbc2db76	-0.005946572
1	0xbc145070	-0.009052381
2	0x3c046e93	0.008083004
3	0x3c327df7	0.01089429
4	0x3c06d81d	0.008230236
5	0x3b5fdb3e	0.0034157778
6	0x3b077ca8	0.0020673666
7	0x3a62566c	0.00086340937

weight f4 [8, 8]
0	0xbeb54658	-0.3540523
1	0x3cfd19ca	0.030896086
2	0x3e2bd059	0.16778697
3	0x3e2b9b18	0.16758382
4	0x3faffb5d	1.3748585
5	0x3f373054	0.7155812
6	0x3d9c0c00	0.07619476
7	0x3e45a150	0.19299817
8	0xbf3632b6	-0.7117113
9	0xbf2c88e2	-0.67396367
10	0x3f856a88	1.0423136
11	0x3f56a53d	0.83845884
12	0x3e9cf122	0.3065272
13	0xbeb889d8	-0.36042666
14	0x3db7ff80	0.0898428
15	0x3eb3cc1e	0.35116667
16	0x3ddb9c48	0.10723168
17	0xbf17e916	-0.59340036
18	0x3bef70ac	0.0073071327
19	0x3e86b202	0.26307684
20	0xbed2fdd6	-0.41209286
21	0x3f33d76e	0.70250595
22	0xbf5c5ef9	-0.86082417
23	0xbf0f3f30	-0.5595579
24	0xbfe07c14	-1.7537866
25	0x3ed4a348	0.41530824
26	0xbee7231e	-0.4514398
27	0x3fa328b6	1.2746799
28	0xbd027006	-0.031845115
29	0x3d048c79	0.032360528
30	0x3ef9185c	0.48651397
31	0xbf0afd31	-0.5429259
32	0xbf0a0d36	-0.5392641
33	0x3ed735ea	0.4203332
34	0x3f5248e0	0.8214245
35	0xbecc34ba	-0.39883977
36	0xbeba348d	-0.36368218
37	0xbe58fdfe	-0.2119064
38	0x3ce84329	0.028352337
39	0x3f06e826	0.5269798
40	0x3dc1bbcc	0.094596475
41	0xbe6b04e4	-0.22951084
42	0xbedf6092	-0.43628365
43	0xbeb89c22	-0.3605662
44	0xbdf6e371	-0.120551
45	0xbf28da52	-0.6595813
46	0xbf24e0d5	-0.64405566
47	0xbf59215f	-0.84816545
48	0xbf89792c	-1.0740104
49	0x3f1f98aa	0.6234232
50	0xbeaab8b2	-0.33344036
51	0x3c913d8e	0.017729547
52	0xbe3b9958	-0.18320215
53	0x3e47b73b	0.1950349
54	0x3e5bacbe	0.21452615
55	0xbd5f395b	-0.054498058
56	0x3f56db76	0.8392862
57	0x3e707ac6	0.23484334
58	0x3ea1feb8	0.31639647
59	0x3f5116de	0.8167552
60	0x3ecdf6b2	0.40227276
61	0xbebd64d8	-0.36991
62	0x3ebc0e06	0.3672945
63	0x3f5cf16b	0.86305875

bias f4 [8]
0	0x3bcfcfdc	0.0063419174
1	0x3c3ae8b6	0.011408022
2	0xba1b4d0e	-0.0005924263
3	0x3a850ca0	0.0010150857
4	0xbb9bf5c4	-0.004759522
5	0xbadc7cda	-0.0016821877
6	0x3ac34f22	0.0014900903
7	0xbb37e7f6	-0.0028061843

weight f4 [32, 8]
0	0xbdd27d26	-0.102777764
1	0x3e085ca2	0.13316587
2	0x3eab9d7a	0.33518583
3	0xbe04fb90	-0.12986588
4	0xbeb1d1ca	-0.3473037
5	0xbec4f258	-0.38466144
6	0x3be93986	0.007117453
7	0x3ec39144	0.38196766
8	0x3de4c84d	0.11171017
9	0x3ebd8302	0.37014014
10	0xbe6f40b8	-0.23364532
11	0xbcf2d112	-0.029640708
12	0xbdfab0a6	-0.12240724
13	0x3e14e644	0.14540964
14	0xbe8c1b6d	-0.27364674
15	0x3ea84d14	0.32871306
16	0x3ead528f	0.3385205
17	0x3ea114c0	0.31461143
18	0x3d4e77de	0.050407283
19	0x3ec88b3a	0.3916872
20	0x3cac1bce	0.021009352
21	0xbead167b	-0.33806214
22	0x3ecca1ec	0.39967287
23	0xbe57781f	-0.21041916
24	0x3eb407ea	0.35162288
25	0xbe93ed95	-0.28892198
26	0xbe4c27a2	-0.19936994
27	0x3e44e9f4	0.19229871
28	0xbe7d9461	-0.24763633
29	0x3c1f6840	0.009729445
30	0x3e3d698c	0.18497294
31	0x3ea0c334	0.31398928
32	0xbeb45117	-0.35218117
33	0x3ebde0f8	0.370857
34	0xbe7e8b1e	-0.24857756
35	0x3e9979a0	0.29975605
36	0xbeb9b08b	-0.36267504
37	0x3ebff7ce	0.37493747
38	0xbe93f62e	-0.28898758
39	0xbe8fb914	-0.2807089
40	0x3e8814b5	0.26578298
41	0x3cd0d7b8	0.025493488
42	0xbe67ef09	-0.22649778
43	0xbe22a029	-0.15881409
44	0x3d8d2420	0.06891656
45	0x3e3191c6	0.17340764
46	0x3ded0476	0.115731165
47	0xbea2b118	-0.31775737
48	0x3c3f5efa	0.011680359
49	0xbe37d058	-0.1795057
50	0xbd17903c	-0.037002787
51	0x3e6ba55e	0.23012301
52	0x3db208ed	0.08693109
53	0xbe80e18c	-0.2517208
54	0x3e8165ea	0.25273067
55	0x3e8bcf80	0.27306747
56	0xbe8b9855	-0.27264658
57	0xbe25d28e	-0.16193601
58	0x3dc4d96e	0.09611784
59	0x3da69a20	0.08134866
60	0xbe057914	-0.13034469
61	0xbe9a9e56	-0.30198926
62	0xbe3ce14a	-0.18445316
63	0xbe574755	-0.21023305
64	0x3ded0c7b	0.11574646
65	0x3dc4b6f1	0.09605206
66	0xbe251b42	-0.1612368
67	0xbdaa955e	-0.08329271
68	0xbe6abdfe	-0.22924039
69	0x3ec29b8c	0.38009298
70	0x3eb15e40	0.3464222
71	0xbdbc18c4	-0.09184411
72	0xbbac48ec	-0.0052577164
73	0xbe3e40ca	-0.18579403
74	0x3c5f4c32	0.013629006
75	0x3dfba0a8	0.12286502
76	0x3eb43804	0.35198987
77	0xbc944f7c	-0.018104307
78	0xbe11a9da	-0.1422495
79	0x3e8303a8	0.25588727
80	0xbe8cb646	-0.27482814
81	0x3e19593a	0.14975443
82	0xbbec223a	-0.0072062286
83	0x3c84a292	0.0161908
84	0xbe7d06e2	-0.24709657
85	0x3e796754	0.24355823
86	0x3dc866d6	0.097852394
87	0xbe6a9712	-0.22909191
88	0xbe053ea6	-0.1301218
89	0xbe688c84	-0.22709852
90	0x3d749a14	0.059717253
91	0xbd0389bc	-0.032113776
92	0x3d2e1b15	0.042506296
93	0x3e3e26da	0.18569508
94	0xbea45438	-0.32095504
95	0x3e5baf40	0.21453571
96	0x3e0cb74e	0.137418
97	0x3e179d9b	0.14806215
98	0x3ec76986	0.38947695
99	0x3e272994	0.16324455
100	0x3e9cb3ec	0.3060602
101	0x3e066164	0.13123089
102	0xbe04ea8f	-0.12980102
103	0x3ec1cae1	0.37850097
104	0xbe9746e5	-0.29546276
105	0xbe4dfb50	-0.201154
106	0x3df5c614	0.12000671
107	0x3dcbc33d	0.09949348
108	0x3db9e7d6	0.09077422
109	0x3e655818	0.22396886
110	0xbe49cddb	-0.19707434
111	0x3d50ce78	0.050978154
112	0x3e980c90	0.29697084
113	0x3e5b69f6	0.2142714
114	0xbe8bbe18	-0.27293468
115	0x3ec4d6bf	0.38445088
116	0xbcc7548c	-0.024332307
117	0xbd8bcd62	-0.06826283
118	0xbea499c4	-0.32148564
119	0xbe4bf73a	-0.19918528
120	0xbeb39a9f	-0.35078904
121	0x3d9ff036	0.078094885
122	0xbda522e4	-0.080632955
123	0xbc89a7e6	-0.016803693
124	0xbd88dd6e	-0.06682859
125	0xb9cba9f2	-0.00038845796
126	0x3e05026c	0.12989205
127	0xbc087782	-0.008329274
128	0x3e952af4	0.29134333
129	0xbd0870fa	-0.033310868
130	0xbe30640f	-0.1722567
131	0x3ec1ea74	0.37874186
132	0xbe998d56	-0.29990643
133	0x3dd27c22	0.10277583
134	0x3e9a394c	0.3012184
135	0x3e9c11b4	0.30482256
136	0x3ea5ac6c	0.3235811
137	0xbe094a16	-0.13407168
138	0xbea8da50	-0.3297906
139	0x3e2d112f	0.16901086
140	0xbe84382c	-0.25824106
141	0x3eb37bfa	0.35055524
142	0x3d9bc866	0.07606582
143	0x3e45a812	0.19302395
144	0xbd89c632	-0.06727256
145	0xbd7c83f6	-0.061649285
146	0x3e99cbc0	0.3003826
147	0xbe148155	-0.14502461
148	0xbcda5ef4	-0.026656605
149	0x3e692fe5	0.22772177
150	0x3e819fb4	0.25317156
151	0x3e11c1c1	0.14234067
152	0xbe1b3706	-0.15157709
153	0xbe8a440e	-0.27005047
154	0xbe9e467e	-0.30913156
155	0x3d0c1aeb	0.03420536
156	0x3e8e2718	0.277642
157	0xbd89d686	-0.0673037
158	0xbd643b76	-0.05572077
159	0x3e747528	0.23872817
160	0xbdbd95ef	-0.09257113
161	0xbe9cab4c	-0.3059944
162	0x3e189a02	0.149025
163	0x3e58cc92	0.21171787
164	0xbeb32ab8	-0.3499353
165	0x3ec52bdc	0.38510025
166	0x3e3d4b27	0.184857
167	0xbe48c724	-0.19607216
168	0xbeaf3872	-0.34222752
169	0xbec55680	-0.38542557
170	0x3e0be480	0.13661385
171	0x3dc184bf	0.094491474
172	0xbd5c38da	-0.053765155
173	0xbe12135e	-0.142652
174	0xbe93f546	-0.28898066
175	0xbdaa1a85	-0.083058394
176	0x3e4d78e8	0.20065653
177	0x3e8ddfc2	0.27709776
178	0x3e1eb8b3	0.15500145
179	0x3e515df0	0.2044599
180	0x3e95fc84	0.29294217
181	0x3e400e29	0.18755402
182	0xbd84d5f6	-0.06486122
183	0x3e598d6a	0.21245351
184	0xbebd3296	-0.36952657
185	0x3ea9486c	0.33063066
186	0xbe0b0921	-0.13577701
187	0xbe0016d3	-0.12508707
188	0xbe9843ca	-0.2973922
189	0x3ea34cd0	0.3189454
190	0xbd9a29ca	-0.07527502
191	0xbd3af20e	-0.045640998
192	0xbe3ee4ae	-0.18641922
193	0xbeb2acc0	-0.34897423
194	0xbe690178	-0.22754467
195	0xbd4ad51e	-0.04951965
196	0x3d5be8a1	0.05368865
197	0x3ea59560	0.32340527
198	0x3e912d31	0.2835479
199	0xbe53fc2a	-0.20701662
200	0x3e8d2706	0.27568835
201	0x3ebda4a6	0.3703968
202	0x3e162f2c	0.14666432
203	0xbcae731c	-0.021295123
204	0xbdf88119	-0.121339984
205	0x3e6da1aa	0.23206201
206	0xbe1c2642	-0.15248969
207	0xbe8504bf	-0.25980183
208	0x3e9bd2af	0.30434176
209	0x3d1d145e	0.0383495
210	0x3bcbf7e0	0.0062246174
211	0x3ebbca8e	0.36677974
212	0xbe35a61a	-0.17739144
213	0x3e519ca6	0.20469913
214	0x3e6c4cd8	0.23076189
215	0x3c575246	0.013142174
216	0xbde828c2	-0.11335899
217	0x3c518b9c	0.012789633
218	0xbdf742de	-0.12073301
219	0x3e1ca700	0.1529808
220	0xbdc47b3a	-0.09593816
221	0xbd5827a8	-0.052772194
222	0x3c254c3c	0.0100889765
223	0x3e8f0b3c	0.2793826
224	0xbe89fdd4	-0.26951468
225	0x3d0afe40	0.033933878
226	0xbea00794	-0.31255782
227	0x3e395bad	0.18101378
228	0xbe84bf54	-0.25927222
229	0xbe80cad6	-0.25154752
230	0x3ec46035	0.3835465
231	0x3ccecbd2	0.025243673
232	0xbc2d5fe5	-0.010581945
233	0xbea7f863	-0.32806692
234	0x3d5465ce	0.0518549
235	0xbe435001	-0.19073488
236	0x3e2ff5a4	0.17183548
237	0xbe34e3f2	-0.17665079
238	0xbeb10332	-0.3457275
239	0x3e378e3e	0.17925355
240	0x3e1091c4	0.14118105
241	0x3e4a7a40	0.19773197
242	0xbe72808e	-0.23681852
243	0x3e2b7ffa	0.16748038
244	0x3e02843e	0.12745759
245	0xbc1ca9ee	-0.009561999
246	0x3e57ae3c	0.21062559
247	0xbe662b4a	-0.22477451
248	0xbdb366f6	-0.087598726
249	0x3e6d406e	0.23169109
250	0xbdea1ad7	-0.114309005
251	0x3ec32923	0.38117322
252	0x3e913180	0.28358078
253	0x3dc35763	0.09538152
254	0xbdf2e9ae	-0.11860977
255	0xbea13b34	-0.3149048

bias f4 [32]
0	0x3b2e466e	0.0026592272
1	0x3b301778	0.0026869457
2	0x3c352820	0.01105693
3	0xb90ae236	-0.00013244976
4	0x3a7bfce8	0.0009612576
5	0xbb6add7b	-0.003583758
6	0x39e637be	0.0004391055
7	0xbbb6f620	-0.0055835396
8	0x3af106b4	0.0018388839
9	0xbb6347b6	-0.0034680194
10	0x3c045d96	0.008078953
11	0x3977b7a4	0.00023624167
12	0xbb82b5d1	-0.0039889594
13	0xbbacad70	-0.005269699
14	0x3c1b692a	0.009485522
15	0xbb9ee14a	-0.004848634
16	0xba436b3c	-0.0007454639
17	0xbb02ef59	-0.0019979088
18	0x3be190a6	0.0068836985
19	0xb8a8fd62	-8.0580605e-05
20	0xbad81b7d	-0.0016487684
21	0xba003109	-0.00048901193
22	0x3924af6a	0.00015705606
23	0x3a26212e	0.00063373416
24	0x37465aec	1.1822889e-05
25	0xbab49efe	-0.0013780294
26	0xb9ef5b6b	-0.00045653744
27	0xb862649e	-5.3976306e-05
28	0xb99d68e6	-0.0003002353
29	0xb9e011f3	-0.00042737983
30	0xba431c23	-0.00074428524
31	0xba30c8f8	-0.0006743814

weight f4 [16]
0	0x3f7dbce6	0.9911636
1	0x3f7ee33e	0.99565494
2	0x3f838ca3	1.0277294
3	0x3f7fde07	0.9994816
4	0x3f7ee748	0.9957166
5	0x3f80ba19	1.0056792
6	0x3f800709	1.0002147
7	0x3f809d14	1.0047936
8	0x3f800708	1.0002146
9	0x3f7eb5f0	0.99496365
10	0x3f804a82	1.0022738
11	0x3f7fee76	0.9997324
12	0x3f7d72dc	0.99003386
13	0x3f79d106	0.9758457
14	0x3f807734	1.0036378
15	0x3f813482	1.0094149

bias f4 [16]
0	0x3b96709c	0.004591061
1	0x3ba15ebe	0.004924624
2	0x3cc47b56	0.023984592
3	0xba0538ce	-0.0005082012
4	0x3aa0e62a	0.0012275625
5	0xbbeea3d2	-0.0072827125
6	0x3a8e5832	0.0010860024
7	0xbc57afc5	-0.013164465
8	0x3b30e792	0.0026993495
9	0xbc267f38	-0.010162167
10	0x3c462d63	0.012095782
11	0x38a87a12	8.0336016e-05
12	0xbbeb1636	-0.0071742786
13	0xbc800df8	-0.01563166
14	0x3c6a46aa	0.014299074
15	0xbc067247	-0.008205957

mask f4 [3]
0	0xba51f9f4	-0.0008009963
1	0xba3908d0	-0.0007058503
2	0x3ac2d7c0	0.0014865324

weight f4 [3]
0	0x3f7eafba	0.9948689
1	0x3f801d54	1.000895
2	0x3f7fd49f	0.9993381

bias f4 [3]
0	0xbbb83c88	-0.0056224503
1	0x3ba52125	0.0050393515
2	0x3a3230c4	0.0006797428

weight f4 [3, 24]
0	0x3e11d928	0.14242995
1	0x3d7e58d8	0.062096447
2	0xbe181faa	-0.14855829
3	0x3ee02575	0.43778577
4	0x3d132394	0.0359226
5	0xbe77feaa	-0.2421824
6	0x3f0d90d0	0.5529909
7	0xbdfa53d9	-0.12223024
8	0x3e7a20fa	0.24426642
9	0xbe3840e0	-0.17993498
10	0x3d911222	0.07083537
11	0x3e0dd4c0	0.13850689
12	0xbe52d809	-0.20590223
13	0xbea6aeac	-0.3255514
14	0xbe3f35ed	-0.18672915
15	0xbc5c18a2	-0.013433607
16	0x3da87136	0.08224718
17	0xbdfacc87	-0.12246042
18	0x3eb27152	0.34852082
19	0xbf01b5b8	-0.50667906
20	0x3f1d2074	0.61377645
21	0xbe1ad6b5	-0.15120967
22	0xbf131788	-0.5745778
23	0xbe8ec5fc	-0.27885425
24	0x3df89016	0.12136857
25	0xbe84b5c2	-0.2591992
26	0x3ef95d76	0.48704118
27	0xbda6e326	-0.08148794
28	0xbebb7ba6	-0.36617774
29	0x3eb2bed2	0.3491121
30	0x3e5a03c0	0.21290493
31	0xbe60b5ba	-0.21944323
32	0x3d3f45d5	0.046697456
33	0x3e426497	0.18983684
34	0x3f129f42	0.5727426
35	0xbd1632a8	-0.036669403
36	0xbf00af1f	-0.50267214
37	0x3f0ccdea	0.550017
38	0x3d8ad2da	0.06778498
39	0x3e3ee848	0.18643296
40	0xbd6842e5	-0.05670442
41	0xbded3cd2	-0.11583866
42	0x3e4c7aec	0.19968766
43	0xbec503a0	-0.38479328
44	0x3dcabda0	0.09899449
45	0xbe8163aa	-0.2527135
46	0xbe43bb34	-0.19114381
47	0x3e1dec1a	0.15422097
48	0x3f4f5a2e	0.8099698
49	0x3d86943e	0.06571244
50	0xbf092902	-0.535782
51	0x3cd64778	0.026157126
52	0x3ecf559b	0.40495
53	0x3e6be976	0.23038277
54	0x3c9d3aca	0.019193072
55	0xbd470b06	-0.048594497
56	0xbd9051fe	-0.07046889
57	0x3e375e74	0.17907125
58	0x3d1f4779	0.03888652
59	0xbe62e4fa	-0.2215766
60	0xbde235f6	-0.110454485
61	0xbd845b0f	-0.064626805
62	0xbf11c6c0	-0.56943893
63	0x3c86cce6	0.016455125
64	0xbe6cdac6	-0.2313033
65	0x3d174542	0.036931284
66	0xbe12c39e	-0.14332435
67	0x3ebccb4d	0.36873856
68	0x3ea6d0c6	0.32581156
69	0xbf1b6878	-0.6070628
70	0xbdce7498	-0.10080832
71	0x3eaa45d6	0.33256406

bias f4 [3]
0	0xbac5f4f4	-0.0015102909
1	0xbaacef16	-0.0013193812
2	0x3b08dd4e	0.002088386

weight f4 [3, 16]
0	0x3e6f59ee	0.23374149
1	0x3f0a32a9	0.5398355
2	0x3e59a87e	0.21255681
3	0x3ef36f8e	0.47546047
4	0xbf093ede	-0.5361155
5	0xbe132d19	-0.14372672
6	0xbee6d32d	-0.4508299
7	0x3f07e4a3	0.53083247
8	0xbecec599	-0.4038513
9	0x3ebd10b3	0.36926803
10	0xbed2ad97	-0.41148064
11	0x3dfca3f1	0.12335957
12	0x3ea8fbd2	0.33004624
13	0xbd67623c	-0.056490168
14	0xbeca45c0	-0.3950634
15	0x3e247c10	0.16062951
16	0x3e658348	0.22413361
17	0xbea303cb	-0.3183883
18	0x3ee5ccc3	0.44882783
19	0xbd37dcaa	-0.044888176
20	0xbeeef9fe	-0.46675104
21	0xbde770fa	-0.113008454
22	0x3f08fcd0	0.5351076
23	0xbf056c70	-0.5211859
24	0x3e19de6e	0.15026256
25	0xbe7872e3	-0.24262576
26	0x3f0aa0cc	0.54151607
27	0x3f0f8985	0.56069213
28	0xbea5c1a3	-0.32374296
29	0x3e7aabaf	0.24479555
30	0xbeda26d2	-0.42607743
31	0x3ef36606	0.47538775
32	0xbe9b7996	-0.303662
33	0x3e2105f0	0.15724921
34	0x3c570fd9	0.013126337
35	0x3ecab1f6	0.39588898
36	0xbe5607dc	-0.20901436
37	0xbeff26a5	-0.4983417
38	0xbf046238	-0.5171237
39	0xbf02a166	-0.51027524
40	0xbed0f5c9	-0.4081252
41	0x3e05210e	0.1300089
42	0x3d8857c0	0.06657362
43	0xbf0c5d86	-0.54830205
44	0x3f09ab20	0.5377674
45	0x3f08e4ce	0.5347413
46	0x3e1009d5	0.1406625
47	0xbebe2d8e	-0.3714413

weight f4 [3, 3]
0	0xbf04e55d	-0.5191248
1	0xbf1356d1	-0.57554346
2	0x3e901f20	0.28148746
3	0x3e884f8d	0.26623192
4	0xbe9b2c13	-0.30307063
5	0x3ecc8d92	0.3995176
6	0x3f0a6210	0.5405588
7	0xbe309fbc	-0.17248434
8	0x3f5e0e0f	0.867402

bias f4 [3]
0	0x3b86fee8	0.0041197427
1	0x3b584b84	0.0033003995
2	0xb9f3b8bf	-0.00046486218

weight f4 [6, 3]
0	0xbf4c6f6c	-0.79857516
1	0xbf0b783a	-0.54480326
2	0x3d81b535	0.063333906
3	0x3ece81ae	0.40333313
4	0x3f19a7d2	0.600217
5	0x3f4a01be	0.7890891
6	0x3f0f72fa	0.56034815
7	0xbe0549ad	-0.13016386
8	0xbf4f5d30	-0.8100157
9	0xbe04d81b	-0.12973063
10	0x3dbcc140	0.09216547
11	0x3f2c3d39	0.6728092
12	0x3d13f6da	0.036124088
13	0x3c8f1682	0.017466787
14	0xbec11214	-0.37709105
15	0x3f02f2da	0.5115181
16	0x3e7b2e4e	0.24529383
17	0x3eeb45f0	0.45951796

bias f4 [6]
0	0xbb80d47e	-0.003931581
1	0x3b0508bf	0.0020299403
2	0x3a0f2eee	0.000546201
3	0x3a625fe6	0.0008635506
4	0x3ae4d4f5	0.0017458486
5	0xb7d1b310	-2.4998124e-05

weight f4 [3]
0	0x3f7f00be	0.9961051
1	0x3f80da76	1.0066669
2	0x3f804548	1.0021143

bias f4 [3]
0	0xbbef9450	-0.0073113814
1	0x3bff7266	0.00779562
2	0xba588b88	-0.0008260538

mask f4 [16]
0	0xb5d40205	-1.5795819e-06
1	0x3adaeda7	0.0016702906
2	0xba4ae2c4	-0.0007739479
3	0x3a654dce	0.00087472505
4	0x3b3d1a08	0.0028854627
5	0xb990d7f2	-0.00027626712
6	0x3ae2147c	0.0017248536
7	0xbb97326e	-0.004614166
8	0x3add3ef1	0.001687972
9	0x37b05210	2.1019048e-05
10	0xba93dc3f	-0.0011280848
11	0xba47725c	-0.00076082884
12	0xba18ee6a	-0.00058338663
13	0x3a0cc661	0.0005370137
14	0xba103428	-0.0005500936
15	0xba341a9f	-0.0006870422

weight f4 [16]
0	0x3f80066e	1.0001962
1	0x3f805458	1.002574
2	0x3f7fafae	0.9987744
3	0x3f8026b4	1.0011811
4	0x3f80c756	1.0060833
5	0x3f7fa4c1	0.9986077
6	0x3f8061ac	1.0029807
7	0x3f7de650	0.99179554
8	0x3f807b00	1.0037537
9	0x3f800f11	1.0004598
10	0x3f7fb3c0	0.9988365
11	0x3f7f73be	0.99785984
12	0x3f7fa43e	0.9985999
13	0x3f8053f8	1.0025625
14	0x3f7fa1b2	0.998561
15	0x3f7f91d4	0.9983189

bias f4 [16]
0	0x3a5d77fc	0.000844836
1	0x3b3271ea	0.0027228543
2	0xbaadea1c	-0.0013268623
3	0x3a29e8cc	0.0006481528
4	0xbba0aaf5	-0.004903192
5	0x3b519495	0.003197943
6	0x3b781b59	0.0037858097
7	0xbbc5867b	-0.006027994
8	0x3b02efc8	0.0019979347
9	0xb990400a	-0.00027513533
10	0x3a676bd5	0.0008828019
11	0x3b04bee0	0.0020255372
12	0x3ac100b6	0.0014724943
13	0xbbe5f80d	-0.0070180953
14	0x3ad83170	0.0016494226
15	0x3ae8d203	0.0017762784

weight f4 [8, 8]
0	0xbedbb8ce	-0.42914432
1	0x3f4713d9	0.7776466
2	0xbd9a8d5c	-0.075464934
3	0xbe3dc8ca	-0.18533626
4	0xbdbe2276	-0.09283917
5	0xbe80a4b8	-0.2512567
6	0x3e1fb9e2	0.15598252
7	0xbe064b94	-0.13114768
8	0x3de95fc7	0.11395221
9	0x3dd26e10	0.10274899
10	0x3e4685af	0.19386934
11	0x3f695af9	0.9115444
12	0xbd3b0347	-0.045657422
13	0x3f22c77c	0.6358564
14	0x3e9df30e	0.308495
15	0x3e0979c4	0.13425356
16	0xbe8b1366	-0.27163237
17	0x3db4bb9a	0.08824845
18	0x3ea9acd1	0.3313966
19	0x3ede000c	0.4335941
20	0xbec246e9	-0.37944725
21	0xbe106880	-0.14102364
22	0xbfa18502	-1.2618716
23	0x3ec33774	0.38128245
24	0x3edf29fa	0.43586713
25	0xbdefbf3e	-0.117063984
26	0x3ecfceee	0.40587562
27	0x3e93171b	0.28728566
28	0x3de59dc4	0.11211732
29	0xbf21d535	-0.63215953
30	0x3c76672e	0.015039248
31	0xbea72bd4	-0.32650626
32	0xbe5e8ba9	-0.21732964
33	0x3d9b7c68	0.07592088
34	0x3effa5f6	0.49931306
35	0x3e9651f0	0.29359388
36	0xbf681398	-0.906549
37	0xbe574e93	-0.21026067
38	0x3fa15d92	1.260668
39	0xbcf7b398	-0.030237004
40	0xbf0ac5ef	-0.5420827
41	0x3f11bdf4	0.5693047
42	0x3e20d97a	0.1570796
43	0xbeb4eeec	-0.35338533
44	0xbece5602	-0.40299994
45	0xbf5a84b0	-0.85358715
46	0x3f076357	0.52885956
47	0xbeedc7eb	-0.46441588
48	0x3d387884	0.045036808
49	0xbf6b613e	-0.91945255
50	0x3f299aff	0.6625213
51	0xbe8186ca	-0.25298148
52	0xb96cefad	-0.00022596
53	0x3edcb3dc	0.43105972
54	0xbee0d74e	-0.43914264
55	0x3cc7cb56	0.02438895
56	0x3daa3c3a	0.083122686
57	0xbf2e6484	-0.68122125
58	0x3f317b65	0.6932891
59	0x3eae45cb	0.34037623
60	0x3f6b6076	0.9194406
61	0xbf611af6	-0.87931764
62	0x3f0a4b79	0.5402141
63	0x3dde90a5	0.108674325

bias f4 [8]
0	0x3b45c8db	0.0030179534
1	0xb6dd30f2	-6.5920112e-06
2	0x3b0fe048	0.002195375
3	0x396a72f4	0.00022358802
4	0x38d6a914	0.000102358084
5	0x3a8ae85d	0.0010597814
6	0xb99ed84c	-0.00030297262
7	0xbb3c42de	-0.002872638

weight f4 [8, 8]
0	0x3e487d68	0.19579089
1	0x3e81d9d0	0.2536149
2	0xbf2ee1c8	-0.68313265
3	0x3ea0d55a	0.31412774
4	0x3e98b7d3	0.29827747
5	0xbf46606c	-0.7749088
6	0x3e96305f	0.2933378
7	0xbf5839a6	-0.84462965
8	0xbea38d62	-0.31943804
9	0x3e9e94c4	0.30972874
10	0xbcb76c3b	-0.022390475
11	0xbe898ca7	-0.26865122
12	0x3e9421f4	0.28932154
13	0x3e14825c	0.14502853
14	0xbe291159	-0.16510524
15	0x3e8bfa52	0.27339417
16	0x3ea83694	0.3285414
17	0x3e78f518	0.24312246
18	0xbf016076	-0.5053781
19	0x3efb765f	0.49113747
20	0x3e162f36	0.14666447
21	0x3eaeafea	0.34118587
22	0xbf395fd6	-0.7241186
23	0x3f438742	0.7637826
24	0x3e364c8c	0.17802638
25	0xbeae57dc	-0.34051406
26	0xbcd063db	-0.02543824
27	0x3d90cff6	0.070709154
28	0xbf2a516a	-0.6653048
29	0x3eab6783	0.3347741
30	0xbe86842e	-0.2627272
31	0xbd5b6b9f	-0.053569432
32	0xbec3f696	-0.38274068
33	0xbec6f2bd	-0.3885707
34	0x3e1ddb3c	0.15415663
35	0xbf0df5f7	-0.5545344
36	0x3f0e36d8	0.55552435
37	0x3ebb6a22	0.3660441
38	0xbdd4188e	-0.10356246
39	0xbdefb2ba	-0.11704011
40	0xbe8b2204	-0.2717439
41	0xbe01c448	-0.12672532
42	0x3d0766b8	0.033056945
43	0x3c1da958	0.009622894
44	0xbf233118	-0.63746786
45	0x3eb9c412	0.36282402
46	0x3da9a47c	0.08283326
47	0x3ebad3d0	0.36489725
48	0x3f03f3e4	0.5154402
49	0xbdab6526	-0.08368902
50	0x3f9580e5	1.167996
51	0x3e76a9b6	0.24088177
52	0x3f7bb3ba	0.98321116
53	0x3f1a1d04	0.60200524
54	0x3c60ca14	0.013720054
55	0x3f250426	0.64459455
56	0xbf8c0c25	-1.0941206
57	0xbf208a22	-0.62710774
58	0xbfabe3d5	-1.3428904
59	0xbe7a690a	-0.24454132
60	0x3de7ccb6	0.113183424
61	0x3d2ac33c	0.041690096
62	0x3f018652	0.5059558
63	0x3f4a95e6	0.79134977

bias f4 [8]
0	0x3a7ffb7d	0.00097649527
1	0xbaa5f77c	-0.0012662257
2	0x3a1f5bb8	0.0006079036
3	0x3a88b298	0.0010429202
4	0x3b30f171	0.002699938
5	0x3aaaecf2	0.0013040586
6	0x3989cfbb	0.00026285448
7	0xbb4a357d	-0.0030854635

weight f4 [32, 8]
0	0xbe35cb22	-0.1775327
1	0x3ea400b0	0.32031775
2	0x3ec583ca	0.3857711
3	0xbd650e4f	-0.05592185
4	0xbe614ac4	-0.22001177
5	0x3d90d176	0.070712015
6	0xbe7e965e	-0.24862048
7	0x3ea44372	0.32082707
8	0xbd9177e1	-0.07102943
9	0xbdc36ddc	-0.095424384
10	0xbdfe8146	-0.12427001
11	0xbe135ed1	-0.14391638
12	0xbdbc8fde	-0.09207128
13	0x3e0b7768	0.13619769
14	0xbc165f20	-0.009177953
15	0x3ea0386a	0.3129304
16	0x3e5af08f	0.21380828
17	0x3ea31f47	0.318598
18	0xbe16fd34	-0.14745027
19	0xbe595fd0	-0.21227956
20	0x3eba28d4	0.36359274
21	0xbe4e3804	-0.20138556
22	0xbd234967	-0.039864924
23	0xbebb2a3a	-0.36555654
24	0xbe50c70d	-0.20388432
25	0x3dd47679	0.10374159
26	0xbe6d1933	-0.23154144
27	0x3ddfdac6	0.109303996
28	0x3ea5585c	0.32293975
29	0x3e8fa952	0.2805887
30	0x3d205780	0.039145947
31	0xbea19e67	-0.31566164
32	0xbd97477a	-0.0738668
33	0xbe68ffc8	-0.22753823
34	0xbe8acdb4	-0.27110064
35	0xbe6ab466	-0.22920379
36	0xbe8242ea	-0.25441676
37	0xbea322dd	-0.31862536
38	0x3ea53cdb	0.32272992
39	0x3d0f6f7e	0.035018437
40	0x3e41cb08	0.18925107
41	0x3d3f5c67	0.04671898
42	0xbd355346	-0.04426887
43	0x3dd8b235	0.10580865
44	0x3ea54072	0.3227573
45	0x3e09a2d8	0.13441026
46	0xbd928c46	-0.07155661
47	0x3e315eb2	0.1732128
48	0x3e551c84	0.20811659
49	0xbe8d572a	-0.27605563
50	0xbd0df4ca	-0.034657277
51	0x3ead3408	0.3382876
52	0x3eac4b1c	0.33651054
53	0xbdc2e3b2	-0.09516086
54	0xbea02c1c	-0.31283653
55	0xbea3a377	-0.3196065
56	0xbe94c42e	-0.29055923
57	0x3d95670f	0.072950475
58	0xbccee440	-0.025255322
59	0x3d93d163	0.07217672
60	0x3c9d8782	0.019229654
61	0x3e8dd1a0	0.27698994
62	0xbe503868	-0.20334017
63	0x3eb193fe	0.34683222
64	0x3d8ac8d4	0.06776586
65	0x3dea9974	0.1145505
66	0x3d358e29	0.044325028
67	0x3ebbe246	0.3669607
68	0x3ebc0c4f	0.3672814
69	0x3e13bd1c	0.14427608
70	0x3e82181a	0.25409013
71	0xbe203dde	-0.156486
72	0x3df50224	0.11963299
73	0x3e8efaad	0.27925625
74	0xbbd9c66e	-0.006645969
75	0x3e208a30	0.15677714
76	0xbd4644c9	-0.048405442
77	0xbeb41f98	-0.35180354
78	0x3ebb906b	0.3663362
79	0xbe66ddfe	-0.22545621
80	0x3d1a28cf	0.037636574
81	0xbe1eb32d	-0.15498038
82	0xbd517b5e	-0.051143043
83	0xbe7673ce	-0.24067613
84	0xbeb76e1e	-0.358262
85	0xbe05f91e	-0.13083312
86	0xbb924b7c	-0.004464565
87	0xbeb12bcb	-0.34603724
88	0xbe0af98a	-0.13571754
89	0x3d61875a	0.055060722
90	0xbe46d65e	-0.19417712
91	0x3e952da2	0.29136378
92	0x3e90054e	0.28129047
93	0xbe95894e	-0.29206318
94	0x3e8224de	0.25418752
95	0x3e883b70	0.26607847
96	0x3ec0d56a	0.37662822
97	0xbe1e9aa0	-0.15488672
98	0xbe71ca17	-0.23612247
99	0xbe4448a1	-0.1916833
100	0x3de2039a	0.11035843
101	0x3d5c7dfc	0.053831086
102	0xbe9075b2	-0.28214794
103	0xbe94a39d	-0.29031077
104	0x3e2eccc6	0.17070302
105	0x3e242b1e	0.16032073
106	0xbe1b6955	-0.151769
107	0xbdd2f73f	-0.10301065
108	0xbe732584	-0.2374478
109	0xbdd92c4e	-0.106041536
110	0xbe9d7afe	-0.30757898
111	0x3ebf09bb	0.3731211
112	0x3e9a0fff	0.3009033
113	0xbec58306	-0.38576525
114	0x3e183c11	0.14866664
115	0x3cd4cef8	0.025977597
116	0xbe427ee8	-0.18993723
117	0x3dfe1593	0.12406459
118	0xbdf35c38	-0.11882824
119	0x3e8482e6	0.25881118
120	0xbd9024fe	-0.07038306
121	0x3e2c0d1d	0.16801877
122	0xbd727222	-0.059190877
123	0xbec09a82	-0.3761788
124	0x3e7354ce	0.23762819
125	0x3ec17f56	0.37792462
126	0xbe8f4230	-0.27980185
127	0x3e68771a	0.22701684
128	0x3d06496e	0.03278487
129	0x3ea98877	0.33111927
130	0x3e5ee274	0.21766073
131	0x3b9ff3b0	0.0048813447
132	0x3ea091aa	0.31361133
133	0x3e7e09d6	0.2480844
134	0x3e9b5c3a	0.303438
135	0xbe99b84e	-0.30023426
136	0xbebc430e	-0.3676991
137	0x3cf8502b	0.030311665
138	0xbe67684b	-0.22598378
139	0x3dd365dd	0.10322163
140	0x3de1c928	0.11024696
141	0x3baf73f9	0.005354401
142	0xbd8f5d76	-0.07000248
143	0x3e148b9a	0.14506379
144	0x3e7aaf62	0.24480966
145	0xbe030bf2	-0.12797526
146	0x3db62249	0.08893258
147	0xbd37c816	-0.04486855
148	0x3eba36b4	0.3636986
149	0x3d783eb4	0.060606673
150	0xbe649e0b	-0.22325914
151	0xbe0f7146	-0.14008054
152	0xbe1eedc7	-0.15520392
153	0xbe0a47bd	-0.13503928
154	0x3dc6baf7	0.097036295
155	0xbe95a59a	-0.29227906
156	0x3dd8b756	0.105818436
157	0xbc2efa87	-0.010679848
158	0x3bbfe7f6	0.0058565093
159	0xbe987e3c	-0.2978381
160	0x3ebe7e96	0.37205952
161	0xbe8b91d6	-0.27259701
162	0x3ba0ba0e	0.004904992
163	0xbe60088c	-0.2187826
164	0x3ec4198a	0.38300735
165	0xbeaa91ee	-0.3331446
166	0x3e9aa6f0	0.30205488
167	0xbd3e866c	-0.046514913
168	0x3d9ba3ae	0.07599579
169	0x3c6d97c4	0.014501516
170	0x3e40976c	0.18807763
171	0x3ea35252	0.31898743
172	0x3eb39640	0.3507557
173	0x3e62bd53	0.22142534
174	0x3ec401a3	0.382825
175	0x3e08f498	0.13374555
176	0x3e3bd24e	0.18341944
177	0xbe4a2d06	-0.19743738
178	0x3eb8f0b2	0.36121136
179	0x3e9c34d3	0.30509052
180	0xbba5761e	-0.005049481
181	0x3d853551	0.0650431
182	0x3ebaa1b1	0.36451486
183	0xbe20fdde	-0.15721843
184	0xbdc82cb8	-0.097741544
185	0xbcb94a6c	-0.022618495
186	0xbd26946f	-0.0406689
187	0xbe916635	-0.2839829
188	0xbaf4bf96	-0.001867282
189	0x3e69a15e	0.22815463
190	0xbe16bdfe	-0.14720914
191	0xbe50ff52	-0.20409897
192	0x3ea02004	0.31274426
193	0xbec30b3c	-0.3809451
194	0xbe861997	-0.26191399
195	0x3e9e506f	0.3092074
196	0xbdd10236	-0.102055
197	0x3defa29e	0.11700939
198	0x3e085818	0.13314855
199	0xbe86ba82	-0.2631417
200	0xbe409d7d	-0.18810077
201	0xbe262e01	-0.16228487
202	0xbd6c99d6	-0.057763897
203	0x3e056e08	0.13030255
204	0x3e137b8a	0.14402595
205	0xbe05efa9	-0.13079704
206	0xbec4e9a4	-0.38459504
207	0xbe032bec	-0.12809724
208	0xbe6bb354	-0.23017627
209	0xbd399199	-0.04530487
210	0x3d8eff1e	0.069822535
211	0xbdcea34a	-0.10089739
212	0x3eba5400	0.36392212
213	0xbeb98866	-0.36236876
214	0xbe833ed5	-0.25633875
215	0x3e9ca2a0	0.30592823
216	0x3e60a493	0.2193778
217	0x3eb5a101	0.354744
218	0xbe7fb98e	-0.24973127
219	0xbdf21eef	-0.11822306
220	0xbe804a7e	-0.25056833
221	0xbe873b50	-0.2641244
222	0xbd641142	-0.05568052
223	0xbeaab6db	-0.33342633
224	0xbcc7fe5a	-0.024413276
225	0x3e3f050e	0.18654272
226	0x3ebef431	0.37295678
227	0xbe2d672c	-0.16933888
228	0xbea45b1c	-0.3210076
229	0x3ddea8c4	0.10872033
230	0x3dc97c66	0.0983818
231	0xbe8780ba	-0.26465398
232	0xbe38701c	-0.18011516
233	0x3e8ddd84	0.27708066
234	0x3cf955da	0.030436445
235	0xbebe95ac	-0.37223566
236	0xbe80a272	-0.25123936
237	0x3e907732	0.2821594
238	0x3d192365	0.03738727
239	0x3e41478e	0.18874952
240	0x3e71c49e	0.2361016
241	0xbe938fa4	-0.28820527
242	0xbeb5efb2	-0.35534436
243	0xbe78e8fc	-0.24307626
244	0xbead6498	-0.3386581
245	0xbe99a866	-0.3001129
246	0x3d3b3dc2	0.045713194
247	0x3e325a7a	0.17417327
248	0x3db90dbe	0.09035824
249	0x3dd4f56e	0.103983745
250	0x3e76ecd8	0.24113786
251	0xbe156de5	-0.14592703
252	0xbda1e472	-0.079049006
253	0x3d9bff5f	0.076170675
254	0x3ccb6c45	0.0248319
255	0x3e9a2524	0.3010646

bias f4 [32]
0	0x3a070e04	0.000515193
1	0x3aa88342	0.0012856501
2	0xba0a7f28	-0.000528323
3	0x3a0dcfc1	0.0005409681
4	0xbaec6afc	-0.0018037255
5	0x3aed91a2	0.0018125067
6	0x3b35d500	0.0027745366
7	0xbb3bdb2b	-0.002866457
8	0x39cb88af	0.00038821014
9	0xb980c322	-0.00024559448
10	0x3a802890	0.0009777714
11	0x3ac606e0	0.001510825
12	0x3a8d5208	0.0010781894
13	0xbb8912a0	-0.0041831285
14	0x3a1dccc8	0.00060195895
15	0x3a6fd648	0.0009149057
16	0x39fbe29a	0.00048043282
17	0xb98c7282	-0.00026788196
18	0x3985847b	0.00025466442
19	0x3965de94	0.00021922059
20	0x39a40f9c	0.00031292147
21	0xba069b7e	-0.00051348645
22	0xb99363ad	-0.0002811229
23	0xba0894b4	-0.0005210147
24	0x390bebec	0.00013343961
25	0xb968c499	-0.00022198482
26	0xba4e0084	-0.0007858353
27	0xb9ac5ee6	-0.000328771
28	0xb8f53bb5	-0.00011693632
29	0x3ac33e16	0.0014895822
30	0xb89ff6b9	-7.6276665e-05
31	0xb981c9c4	-0.00024755124

weight f4 [16]
0	0x3f8025c4	1.0011525
1	0x3f804675	1.0021502
2	0x3f7fa3f4	0.9985955
3	0x3f803774	1.0016923
4	0x3f80a3b6	1.0049961
5	0x3f7f661a	0.9976517
6	0x3f8042e4	1.0020413
7	0x3f7d399e	0.9891604
8	0x3f805722	1.0026591
9	0x3f7fdece	0.9994935
10	0x3f7f4bf4	0.9972527
11	0x3f7ef59f	0.9959354
12	0x3f7f4f4a	0.9973036
13	0x3f807f70	1.0038891
14	0x3f7f9cd2	0.99848664
15	0x3f7f4e1a	0.9972855

bias f4 [16]
0	0x39b95df6	0.00035355956
1	0x3b3036fc	0.0026888242
2	0xbb02669f	-0.0019897593
3	0x3a4f03ef	0.00078970095
4	0xbba16e62	-0.0049264887
5	0x3b8a2604	0.0042159576
6	0x3b8ec9b0	0.004357539
7	0xbc02fc12	-0.007994669
8	0x3ab5e993	0.0013878815
9	0xba6e996a	-0.000910184
10	0x3ad83026	0.0016493842
11	0x3b49582c	0.003072272
12	0x3b289de6	0.002572888
13	0xbc03a082	-0.0080338735
14	0x3b083784	0.0020785043
15	0x3b3db787	0.0028948502

mask f4 [16]
0	0x389701aa	7.200551e-05
1	0x3b11cccb	0.002224731
2	0xbacf1b02	-0.0015800896
3	0xb8149509	-3.542475e-05
4	0x3b256578	0.0025237482
5	0xbb408b58	-0.002937993
6	0xbb14c712	-0.0022701663
7	0x3b1ee9fc	0.0024248352
8	0x38f033d6	0.00011453747
9	0xb9ea6a1a	-0.0004471101
10	0x39e7069e	0.00044064684
11	0x3a50e90a	0.0007969296
12	0xb88f637e	-6.837303e-05
13	0x3b3bd069	0.0028658158
14	0xbac44a39	-0.0014975733
15	0xbb3a9f99	-0.0028476475

weight f4 [16]
0	0x3f7feb9e	0.999689
1	0x3f807a23	1.0037273
2	0x3f7f194c	0.99647975
3	0x3f7ffe2c	0.9999721
4	0x3f80988a	1.0046551
5	0x3f7e99b8	0.99453306
6	0x3f7ed7a6	0.99547803
7	0x3f809aa2	1.004719
8	0x3f80070c	1.000215
9	0x3f7fc0ee	0.9990376
10	0x3f801aaa	1.0008137
11	0x3f803278	1.0015402
12	0x3f7ff921	0.99989516
13	0x3f80a7b2	1.0051177
14	0x3f7f4035	0.9970735
15	0x3f7e7d14	0.99409604

bias f4 [16]
0	0xb915f116	-0.00014299559
1	0x3b234cab	0.0024917524
2	0xbb1f5f52	-0.002431829
3	0xb7376ea2	-1.0933409e-05
4	0xbbaa5226	-0.005197781
5	0x3ba23a6a	0.004950811
6	0x3b9d0d78	0.0047928654
7	0xbc132d39	-0.00898295
8	0x3ad643c4	0.00163471
9	0xbacdc5f7	-0.0015699257
10	0x3b04fd75	0.0020292674
11	0x3b7af428	0.00382925
12	0x3b182ded	0.0023220733
13	0xbc0bb3f8	-0.008526795
14	0x3b2f962c	0.002679239
15	0x3b7e328e	0.0038787457

weight f4 [8, 8]
0	0x3f8b7b30	1.0896969
1	0xbde0532a	-0.10953362
2	0xbf138962	-0.57631505
3	0x3e27c2cc	0.16382903
4	0xbf89f561	-1.0778009
5	0xbe1b3a95	-0.15159066
6	0x3ee33c06	0.44381732
7	0x3f2fbb0e	0.686448
8	0xbfa5dc68	-1.2957888
9	0x3e4d0b26	0.20023784
10	0x3e1f4dc5	0.1555701
11	0xbeedc325	-0.46437946
12	0x3d481dae	0.04885643
13	0x3e620712	0.2207301
14	0x3e2a7984	0.16647917
15	0xbefc4238	-0.4926927
16	0x3dc9d0c6	0.098542735
17	0x3def5029	0.11685211
18	0xbb8b577c	-0.0042523723
19	0x3caba70a	0.020953674
20	0xbf2766ca	-0.6539122
21	0xbeb8aff8	-0.36071754
22	0x3e760c8b	0.24028222
23	0x3eff8022	0.49902445
24	0xbc0237ef	-0.007947906
25	0xbd080f2e	-0.0332176
26	0xbd867402	-0.065650955
27	0xbf2f8b95	-0.6857236
28	0xbedd93f8	-0.43276954
29	0xbdd71ac4	-0.10503152
30	0xbdcfa1f5	-0.10138313
31	0x3d19affc	0.037521347
32	0x3f549de6	0.83053434
33	0xbe4ae86e	-0.19815227
34	0xbee4e488	-0.44705606
35	0x3ec374aa	0.38174945
36	0x3f6f319a	0.9343506
37	0xbf06c6e8	-0.52647257
38	0xbe0b28ef	-0.13589834
39	0x3e1c1e5a	0.15245953
40	0xbedbbd72	-0.42917973
41	0xbe0fa8ca	-0.14029232
42	0x3e4b14b8	0.19832122
43	0xbefdf533	-0.49601135
44	0x3ea63ffd	0.32470694
45	0xbf04b801	-0.5184327
46	0x3f2c0f72	0.6721107
47	0xbe12d7f6	-0.14340195
48	0x3f355f50	0.7084856
49	0xbeab447c	-0.33450687
50	0xbee1bb5e	-0.44088262
51	0x3f39130a	0.72294676
52	0xbe46933a	-0.193921
53	0x3f5800de	0.84376323
54	0xbe9a1892	-0.3009687
55	0xbf351d2e	-0.7074765
56	0x3e440613	0.19142942
57	0xbed3b134	-0.41346133
58	0xbcba2331	-0.022721859
59	0xbdb4b19e	-0.0882294
60	0x3edea56a	0.43485576
61	0x3f2da3f2	0.67828286
62	0xbf87cc86	-1.0609291
63	0x3ef7f161	0.48426345

bias f4 [8]
0	0x3b46d025	0.0030336466
1	0xbae1b83e	-0.0017221046
2	0xba76af54	-0.0009410281
3	0xbb0c4d7e	-0.0021408494
4	0x3528b208	6.2843947e-07
5	0x3a1c71f6	0.0005967909
6	0x3a8c26d7	0.0010692728
7	0xb9662402	-0.00021947923

weight f4 [8, 8]
0	0xbebd0ed6	-0.3692538
1	0xbe909d96	-0.2824523
2	0xbf5b1082	-0.85572064
3	0x3ed0397c	0.40668857
4	0xbd793317	-0.06083974
5	0xbf4a6190	-0.7905512
6	0xbea1263a	-0.31474477
7	0xbe1b3b30	-0.15159297
8	0xbf3eac94	-0.74482083
9	0xbf541ff9	-0.82861286
10	0xbe92f2f2	-0.28700978
11	0x3ec9f9a7	0.39448282
12	0xbecca262	-0.39967638
13	0x3ea9ae04	0.33140576
14	0xbe6c3bee	-0.23069736
15	0xbd4f554d	-0.05061846
16	0xbcc0785e	-0.023494896
17	0xbf3d381a	-0.7391373
18	0x3e715890	0.2356894
19	0xbe9d5bd8	-0.30734134
20	0xbd77ad75	-0.060468156
21	0x3df8357d	0.12119577
22	0xbec5c501	-0.38626865
23	0xbf805040	-1.002449
24	0xbee2b974	-0.44282115
25	0xbf30ee32	-0.6911346
26	0x3e0a80b4	0.13525659
27	0x3d7c302c	0.061569378
28	0x3e2209dc	0.15824074
29	0x3cacde54	0.021102108
30	0xbe3d3b9e	-0.18479773
31	0x3f10f719	0.5662704
32	0x3cdcc14d	0.026947642
33	0x3df1a180	0.11798382
34	0x3e6410e8	0.22272074
35	0xbd9c3a95	-0.07628361
36	0xbf377a2e	-0.71670806
37	0x3f31cc9e	0.69452846
38	0x3ea77310	0.32704973
39	0x3ed8813d	0.422861
40	0x3f9c1fbc	1.2197185
41	0x3f11c91a	0.5694748
42	0x3e107e32	0.1411064
43	0x3d768a7c	0.060190663
44	0xbc749bac	-0.014929693
45	0xbe46eb40	-0.19425678
46	0x3e4fbcdf	0.20286892
47	0x3f565366	0.83721006
48	0xbe4aee10	-0.19817376
49	0x3e2efaf2	0.17087916
50	0xbe11e5fe	-0.14247891
51	0x3e9ba862	0.30401903
52	0xbeffc678	-0.49956107
53	0xbe865ffa	-0.262451
54	0x3d0c0836	0.034187518
55	0xbfca9d74	-1.5829301
56	0xbf6da21a	-0.9282547
57	0x3f930e7e	1.1488798
58	0xbe3afa32	-0.18259504
59	0x3f3821c6	0.71926534
60	0xbe4d4cc4	-0.20048815
61	0xbf00acd4	-0.50263715
62	0xbf195461	-0.59894377
63	0xbb7d3308	-0.0038635153

bias f4 [8]
0	0x3b1dea44	0.0024095932
1	0x3a373ffa	0.0006990429
2	0x3a9f893e	0.0012171639
3	0xbb8d8864	-0.0043192375
4	0x3a5c89b9	0.0008412856
5	0xb9ef155e	-0.00045601552
6	0xbb239c98	-0.0024965163
7	0xbb2afe6c	-0.0026091589

weight f4 [32, 8]
0	0x3deefd62	0.11669423
1	0xbe9711f7	-0.29505894
2	0xbde13647	-0.10996681
3	0xbe13bae0	-0.14426756
4	0x3e1c0800	0.15237427
5	0xbe8b1b88	-0.27169442
6	0x3c1d0576	0.0095838215
7	0xbd3556bc	-0.04427217
8	0x3da7c7d0	0.08192408
9	0xbe2049c4	-0.1565314
10	0xbd1df915	-0.03856762
11	0x3d25089c	0.040291414
12	0xbda82b1b	-0.08211347
13	0xbe9c929c	-0.30580604
14	0xbeac2326	-0.33620566
15	0x3e9d8cd4	0.30771506
16	0xbe9dfb7f	-0.3085594
17	0x3ebde676	0.3708989
18	0xbea1b857	-0.31585953
19	0xbe0b3912	-0.1359599
20	0xbe35d226	-0.17755947
21	0xbe38846c	-0.18019265
22	0x3e081400	0.1328888
23	0x3ec25b06	0.3796007
24	0x3e8afa06	0.27143878
25	0xbdbd00ca	-0.09228666
26	0x3eb8bcb6	0.36081475
27	0x3e5a872b	0.21340625
28	0x3d2e692e	0.042580776
29	0xbeb77855	-0.35833994
30	0x3ea60a24	0.32429612
31	0xbe0dc366	-0.1384407
32	0x3df16198	0.11786193
33	0xbe7c8396	-0.24659571
34	0xbe4c268f	-0.19936584
35	0xbb5ddfbf	-0.0033855287
36	0xbdef10d7	-0.11673134
37	0x3d07b150	0.033128083
38	0x3e5ee2f0	0.21766257
39	0x3e45e86b	0.19326942
40	0xbcb8590c	-0.022503398
41	0xbe614e6f	-0.22002576
42	0xbdf0fa3a	-0.11766477
43	0xbe9eb612	-0.30998284
44	0x3d8a8848	0.06764275
45	0x3d132940	0.03592801
46	0xbe82ff0c	-0.2558521
47	0xbec6af2c	-0.3880552
48	0x3ec12467	0.37723085
49	0xbba2e6f0	-0.0049713776
50	0xbe491de6	-0.19640312
51	0x3e17310e	0.14764807
52	0x3d9cdd5e	0.0765941
53	0x3db1c1f7	0.08679574
54	0x3e900468	0.28128362
55	0x3ec1d766	0.37859648
56	0x3d182f02	0.037154205
57	0x3e2a4654	0.1662839
58	0x3eb14fc4	0.3463117
59	0x3dce1658	0.100628555
60	0x3e0aa560	0.13539648
61	0x3e161f80	0.14660454
62	0xbddedd1d	-0.10882018
63	0x3cc61b19	0.024182843
64	0xbdb1dd58	-0.08684796
65	0xbeaa9890	-0.3331952
66	0xbe93308c	-0.28747976
67	0x3dc5ab1e	0.09651779
68	0xbe090c2c	-0.1338355
69	0x3eafe23c	0.3435229
70	0x3e8a415f	0.27003
71	0xbeba9430	-0.36441183
72	0x3db0fb87	0.08641725
73	0xbe40defe	-0.18835065
74	0xbe7f622f	-0.24939798
75	0xbeba8c58	-0.364352
76	0x3d598b56	0.053111397
77	0x3eb44426	0.35208243
78	0xbd47744f	-0.048694905
79	0xbe353ff2	-0.17700174
80	0xbe87dd90	-0.26536226
81	0x3db510c8	0.088410914
82	0xbd613a1e	-0.054987065
83	0xbe8a3f8e	-0.27001613
84	0x3e75f48e	0.24019071
85	0x3d3164ae	0.043308906
86	0xbe8e866a	-0.27836925
87	0x3e660cd8	0.22465837
88	0x3ea3ef3a	0.32018453
89	0xbde054c5	-0.109536685
90	0x3e69c470	0.22828841
91	0xbebaaca6	-0.36459845
92	0x3d60fe38	0.054929942
93	0xbe98b730	-0.2982726
94	0xbe2e61d2	-0.17029503
95	0xbe6ece10	-0.23320794
96	0x3eb6f07e	0.35730356
97	0xbe9e01bf	-0.30860707
98	0x3d0935ae	0.03349846
99	0x3e8acfb6	0.27111596
100	0x3e4a13ae	0.1973407
101	0x3eaa7364	0.3329116
102	0xbeb3e7ec	-0.3513788
103	0xbe55a1d6	-0.20862517
104	0xbe33737a	-0.1752452
105	0xbe21adc6	-0.15788946
106	0xbe648200	-0.22315216
107	0x3ea762fb	0.32692704
108	0x3d881eca	0.066464975
109	0xbd23b565	-0.039967913
110	0x3ddd7464	0.108132154
111	0xbcf82848	-0.030292645
112	0xbe0383c0	-0.12843227
113	0x3e3059d0	0.17221761
114	0x3e256668	0.16152346
115	0xbda3e42e	-0.08002506
116	0xbd77b77c	-0.06047772
117	0xbea9254a	-0.33036262
118	0xbe765919	-0.24057426
119	0xbd526c28	-0.051372677
120	0xbd4e9291	-0.050432745
121	0x3e9f9866	0.31170958
122	0x3e9188d6	0.2842471
123	0xbec533d6	-0.3851611
124	0x3ec4d41f	0.38443086
125	0x3e20a1d2	0.1568673
126	0x3e01ac49	0.12663378
127	0xbdd22ab4	-0.10262051
128	0x3eb6e396	0.3572051
129	0xbe87f160	-0.26551342
130	0x3e43402c	0.19067448
131	0xbe22df63	-0.15905528
132	0x3eaddd36	0.33957833
133	0x3c9589bc	0.018254153
134	0xbe470a6f	-0.19437574
135	0x3e606a77	0.21915613
136	0xbdea2955	-0.11433665
137	0x3e77724b	0.24164693
138	0xbec3eaef	-0.38265178
139	0x3c048e8a	0.008090625
140	0xbea01e3e	-0.31273073
141	0x3e459472	0.19294909
142	0x3eb76d24	0.35825455
143	0x3ca04ed4	0.019568838
144	0xbd00027e	-0.031252377
145	0x3eb43302	0.35195166
146	0xbc988d90	-0.01862219
147	0x3e81c225	0.25343433
148	0x3eb8a686	0.36064547
149	0xbd9efaba	-0.07762666
150	0xbec51a1c	-0.38496482
151	0xbeb1b680	-0.3470955
152	0x3eb07674	0.34465373
153	0xbe3195f0	-0.17342353
154	0x3e39e122	0.18152288
155	0xbebb8f3a	-0.3663271
156	0x3e8e647e	0.27811044
157	0xbe0e5000	-0.13897705
158	0x3e6e45dd	0.23268838
159	0xbd2840e6	-0.041077517
160	0xbeba14a4	-0.36343873
161	0x3ead6ff4	0.33874476
162	0xbe95cc94	-0.29257643
163	0xbe916919	-0.28400496
164	0xbe04a456	-0.12953314
165	0xbe83acc6	-0.25717753
166	0xbe2d0986	-0.16898164
167	0x3ea9eae6	0.33187026
168	0xbdf54b8c	-0.119773
169	0x3e95fd7a	0.2929495
170	0x3e0618f4	0.13095456
171	0x3c881faa	0.016616661
172	0xbe7efdf4	-0.24901563
173	0x3d1e0508	0.038579017
174	0x3e83cd28	0.2574246
175	0xbe95a5b2	-0.29227978
176	0xbe8188e8	-0.25299764
177	0xbe912e9a	-0.28355867
178	0xbe86d2d4	-0.26332724
179	0xbe69120f	-0.22760795
180	0x3e05121d	0.12995191
181	0xbe8e311e	-0.27771848
182	0x3dc60296	0.09668462
183	0x3ea3994d	0.31952897
184	0xbead039e	-0.33791822
185	0x3e34ed1e	0.17668578
186	0xbea44ada	-0.32088357
187	0x3e2e78c5	0.17038257
188	0xbe80ff16	-0.25194615
189	0x3d62c2f1	0.05536169
190	0xbea105cc	-0.31449735
191	0x3ebf1f46	0.37328547
192	0x3e6338ca	0.22189632
193	0x3ce519de	0.027966436
194	0x3e8f2810	0.27960253
195	0xbe32bf59	-0.17455806
196	0x3ebf9afc	0.3742293
197	0x3d7b54ce	0.061360173
198	0xbe43e061	-0.19128563
199	0xbe57b2f7	-0.21064363
200	0x3e2979ac	0.1655032
201	0xbc4dad14	-0.012553472
202	0x3eab36d4	0.33440268
203	0x3ec5b7b0	0.38616705
204	0xbd3b500d	-0.04573064
205	0x3d5fed2a	0.054669537
206	0xbd3f46d2	-0.0466984
207	0x3ea81412	0.32827812
208	0xbe2bde22	-0.16783956
209	0xbc878e9e	-0.016547497
210	0x3e08084c	0.13284415
211	0x3ead4694	0.3384291
212	0x3e668c1e	0.22514388
213	0x3e679372	0.2261484
214	0x3e73c4a0	0.23805475
215	0x3d86bc3b	0.06578871
216	0x3e93d144	0.28870595
217	0x3e934e94	0.28770888
218	0x3e6eba8a	0.23313347
219	0x3e2087c2	0.15676787
220	0x3c30febc	0.010802921
221	0xbd00e867	-0.031471636
222	0xbda36a24	-0.07979229
223	0xbe6364a4	-0.2220636
224	0x3e1182d2	0.1421006
225	0xbdd49ccb	-0.103814684
226	0x3e81fae4	0.25386727
227	0xbce56e5d	-0.028006727
228	0x3c72865c	0.014802542
229	0x3d8b39c0	0.06798124
230	0xbd847e64	-0.064694196
231	0x3d5ce43a	0.05392859
232	0x3eae8d82	0.34092337
233	0xbeb583ba	-0.35452062
234	0xbc3acfd4	-0.011402089
235	0xbe90e037	-0.28296062
236	0xbe00e676	-0.12587914
237	0xbebde2b4	-0.37087023
238	0xbe13f0c2	-0.1444731
239	0xbe98778e	-0.29778713
240	0x3e671da6	0.22569904
241	0xbd089045	-0.03334071
242	0x3ead2647	0.33818266
243	0xbe93c69a	-0.28862458
244	0xbeaf8258	-0.34279132
245	0xbeb7ce7e	-0.3589973
246	0x3e75d3a0	0.2400651
247	0x3eb85f6b	0.36010298
248	0xbd6c7097	-0.05772456
249	0xbea5fbfa	-0.32418805
250	0x3eb92dcc	0.36167753
251	0x3e7d5584	0.24739653
252	0xbe926d78	-0.28599143
253	0xbda94315	-0.08264748
254	0xbd2a4cd6	-0.041577183
255	0xbdafaeb1	-0.085782416

bias f4 [32]
0	0xb8688a45	-5.5441884e-05
1	0x3abbf53a	0.0014340051
2	0xbaaa234d	-0.0012980491
3	0x37c62024	2.3618406e-05
4	0xbb10c608	-0.0022090692
5	0x3b3f8480	0.0029223263
6	0x3afcd343	0.0019289035
7	0xbb8c5568	-0.004282642
8	0x3a615702	0.0008596034
9	0xba31939c	-0.00067740097
10	0x3a71e417	0.00092274084
11	0x3b130fc4	0.0022439817
12	0x3a9762fc	0.0011549885
13	0xbbc4cf18	-0.006006133
14	0x3a8a88a2	0.0010569284
15	0x3b0ed278	0.002179293
16	0xb5d5beb2	-1.5925236e-06
17	0xb8e2a569	-0.0001080733
18	0x398ee7f6	0.00027257175
19	0x37db2b3a	2.6126963e-05
20	0xb81f4b64	-3.7978767e-05
21	0x3a51a074	0.00079966267
22	0xb9cbd78e	-0.00038879778
23	0x3a06b9f0	0.0005139401
24	0x39b33af4	0.00034185464
25	0xb926f882	-0.0001592357
26	0xb980f9e7	-0.00024600254
27	0x39634baa	0.00021676594
28	0x399f16dc	0.00030343875
29	0xb95b2965	-0.00020900888
30	0xb8c92294	-9.5908676e-05
31	0xb9bb1fac	-0.00035691017

weight f4 [16]
0	0x3f8011aa	1.0005391
1	0x3f808518	1.0040617
2	0x3f7f68f3	0.99769515
3	0x3f8002d2	1.0000861
4	0x3f80a06a	1.0048954
5	0x3f7ef698	0.9959502
6	0x3f7ec7d4	0.99523664
7	0x3f80c31d	1.0059544
8	0x3f80208e	1.0009935
9	0x3f7fbe6b	0.9989993
10	0x3f800d0e	1.0003984
11	0x3f8041b2	1.0020049
12	0x3f800ed8	1.000453
13	0x3f80a35e	1.0049856
14	0x3f7f4a6e	0.99722946
15	0x3f7e8464	0.9942076

bias f4 [16]
0	0x39cc5bf5	0.00038978425
1	0x3b3e6516	0.002905195
2	0xbb078a25	-0.0020681706
3	0x38f4aa9a	0.00011666604
4	0xbbb1c85a	-0.005425495
5	0x3b9c7204	0.004774334
6	0x3b92f757	0.0044850516
7	0xbc154821	-0.009111435
8	0x3aeb173a	0.0017935999
9	0xbab25085	-0.0013604319
10	0x3b099dc8	0.0020998586
11	0x3b81de2f	0.003963254
12	0x3b1ce6b6	0.0023941225
13	0xbc0d4c3a	-0.008624131
14	0x3b1d8d53	0.0024040535
15	0x3b5aa522	0.0033362587

mask f4 [16]
0	0xb7b770b5	-2.1867783e-05
1	0x391fe22d	0.00015247679
2	0x35e33ccc	1.6930512e-06
3	0xb96cca97	-0.00022582184
4	0xb95a940a	-0.00020845249
5	0x39337a72	0.00017116385
6	0xb9841367	-0.00025191458
7	0x3a38c2ce	0.0007048071
8	0xb8ab8a0c	-8.179629e-05
9	0xb818ae8e	-3.640219e-05
10	0xb7b9f5cc	-2.2168177e-05
11	0x3996f4e6	0.00028792693
12	0x395ffad6	0.00021360381
13	0xba402dfa	-0.000733107
14	0x388bafa6	6.6607536e-05
15	0xb7020e8f	-7.7519935e-06

weight f4 [16]
0	0x3f7fff8c	0.9999931
1	0x3f80082a	1.0002491
2	0x3f800405	1.0001227
3	0x3f7fe9f4	0.9996636
4	0x3f7ff73e	0.99986637
5	0x3f8003a3	1.000111
6	0x3f7fd446	0.9993328
7	0x3f803c80	1.0018463
8	0x3f7ff756	0.9998678
9	0x3f7fffd6	0.9999975
10	0x3f7ff77c	0.99987006
11	0x3f8011b8	1.0005407
12	0x3f800c7c	1.000381
13	0x3f7fbda4	0.99898744
14	0x3f800092	1.0000174
15	0x3f7ffc0a	0.99993956

bias f4 [16]
0	0xb8922b4d	-6.969888e-05
1	0x3a05ee56	0.0005109062
2	0xb90b17da	-0.00013264958
3	0xb948961a	-0.00019129404
4	0xba74fc1e	-0.000934543
5	0x3aa3ad02	0.0012487473
6	0x3a763dcc	0.0009393364
7	0xbae990c0	-0.0017819628
8	0x391e6ce9	0.00015108626
9	0xb8d16394	-9.9844445e-05
10	0x39dfbdb4	0.00042675214
11	0x39cd617b	0.00039173276
12	0x39d52aea	0.000406585
13	0xbaf41b9e	-0.0018623953
14	0x3a16409a	0.0005731672
15	0x39fc5239	0.00048126446

weight f4 [8, 8]
0	0xbed837ea	-0.4223016
1	0x3f5f8bb9	0.87322575
2	0x3ed4e9c8	0.4158461
3	0x3f83d2b6	1.0298679
4	0xbd33bf20	-0.043883443
5	0xbe2ce521	-0.1688428
6	0xbc80bd18	-0.015715167
7	0xbe7bc915	-0.24588425
8	0xbde5e8f2	-0.112260714
9	0xbdb33d5e	-0.08751939
10	0xbf202f96	-0.6257261
11	0x3ebfc020	0.37451267
12	0xbf1c2c2e	-0.6100491
13	0x3f687528	0.90803766
14	0xbdff9b2e	-0.1248077
15	0x3e1fdbba	0.15611163
16	0x3e3ca7c7	0.18423377
17	0xbed3f4ac	-0.41397607
18	0x3c417862	0.011808487
19	0xbf9660bf	-1.1748275
20	0x3d583ba3	0.05279125
21	0x3c869068	0.01642628
22	0x3e6c54fe	0.23079297
23	0xbdd557f5	-0.10417167
24	0xbe0af82c	-0.13571233
25	0xbf197db6	-0.59957445
26	0xbe330672	-0.17482927
27	0xbed712b8	-0.4200647
28	0xbeb6739c	-0.35635078
29	0x3eaf6940	0.34259987
30	0x3eeb6d30	0.4598174
31	0xbf135c64	-0.5756285
32	0x3e823974	0.25434458
33	0xbe70e212	-0.23523739
34	0xbe2cd710	-0.16878915
35	0x3c183c7d	0.009291765
36	0x3e51d09c	0.20489734
37	0xbf197a99	-0.59952694
38	0xbdd76bf5	-0.10518638
39	0x3e45c8a8	0.19314826
40	0x3e847248	0.2586844
41	0x3eef964a	0.4679435
42	0x3dd80bff	0.10549163
43	0xbf296b80	-0.66179657
44	0x3f132c78	0.5748973
45	0x3c9814ee	0.018564668
46	0x3e7754c0	0.24153423
47	0xbe4eec2c	-0.2020728
48	0x3d8deafa	0.06929584
49	0xbe824787	-0.25445196
50	0xbe230d04	-0.15922934
51	0x3f122012	0.57080185
52	0xbdaf921d	-0.08572791
53	0x3eb94780	0.36187363
54	0x3ed71a33	0.42012176
55	0xbf48ba7c	-0.7840955
56	0xbda7b7d6	-0.08189361
57	0x3efb14e3	0.49039373
58	0x3f146cbd	0.5797842
59	0x3ef0cec6	0.47032756
60	0xbeeb93b2	-0.4601112
61	0x3f31f5d6	0.6951574
62	0xbedb8f30	-0.4288268
63	0xbdc42d7c	-0.09578988

bias f4 [8]
0	0xb840dc90	-4.5981782e-05
1	0xb953a57e	-0.00020184179
2	0xb9df2dc4	-0.00042567973
3	0x3a227fb2	0.00061988377
4	0x399d0fb4	0.00029957073
5	0xb9173732	-0.00014421044
6	0xb9956d38	-0.0002850087
7	0xba5dbe09	-0.00084587984
