Romeo_Best_TFT_Height.pth (torch, 235113 bytes, 184 tensors)

weight f4 [56, 1]
-0.013371587 -0.8016225 0.13668907 0.43048346 0.34186542 0.7115178 0.91407824 0.7241694
0.9037843 0.5250679 -0.7490159 -0.9125416 -0.32447517 -0.106771946 0.09847927 -0.712549
-0.6127913 -0.37884784 0.69664824 0.15554011 -0.7747288 0.58796895 0.09859753 -0.32541883
-0.7596531 0.2789402 -0.9375788 -0.38808143 0.8362757 -0.97035384 -0.64859045 0.48629797
-0.5702945 -0.54391074 -0.98734903 0.93617225 0.99927354 -0.07912433 0.6725893 -0.9914398
0.6170101 0.5888597 -0.8022808 -0.9700663 0.7921264 -0.6995981 0.50973666 0.14577127
-0.010757923 0.25853145 0.7941133 -0.5805174 -0.96761215 -0.57318735 -0.09443271 0.39435744
00000000: 8014 5bbc 2237 4dbf 38f8 0b3e 5468 dc3e
00000010: fc08 af3e 0826 363f 0801 6a3f 2a63 393f
00000020: 685e 673f da6a 063f 82bf 3fbf 549c 69bf
00000030: 9c21 a6be 40ab dabd 80af c93d 9c69 36bf
00000040: e4df 1cbf 58f8 c1be 8a57 323f e845 1f3e
00000050: a054 46bf 2285 163f 80ed c93d 4c9d a6be
00000060: a078 42bf 40d1 8e3e 2a05 70bf 9cb2 c6be
00000070: 2a16 563f 1c69 78bf 060a 26bf 0cfc f83e
00000080: d2fe 11bf bc3d 0bbf e8c2 7cbf fca8 6f3f
00000090: 64d0 7f3f f00b a2bd d02e 2c3f 00cf 7dbf
000000a0: 60f4 1d3f 82bf 163f 4662 4dbf 4456 78bf
000000b0: ccc8 4a3f dc18 33bf 1a7e 023f 1045 153e
000000c0: 0042 30bc 3c5e 843e 024b 4b3f ca9c 14bf
000000d0: 6eb5 77bf 68bc 12bf f065 c1bd 38e9 c93e

bias f4 [56]
-0.49077025 0.2103518 -0.5540087 0.48079023 0.2018743 0.7383269 -0.55018556 -7.178956e-05
0.15531194 0.5948266 0.47767088 0.06480294 -0.2001183 -0.96603286 -0.69567585 -0.3946642
0.08485752 -0.859882 -0.19152713 0.25448477 0.9314584 -0.899926 -0.06394333 -0.03586008
-0.8876622 0.48850524 0.1799902 -0.8707514 -0.8431024 -0.1945098 0.47302034 0.6688611
-0.81394017 0.32431367 0.00022044084 -0.6766786 0.0034080287 -0.23282923 0.109007 0.2617941
0.9236552 0.81764615 0.87946016 0.7830442 -0.7924984 0.4728827 0.80691653 -0.17352101
-0.13239853 -0.92703927 0.8855777 0.6106567 -0.6291923 0.5165874 -0.35135913 0.6774164
00000000: 3d46 fbbe 7666 573e 84d3 0dbf 232a f63e
00000010: 23b8 4e3e fe02 3d3f f6d8 0cbf ba8d 96b8
00000020: 180a 1f3e 8e46 183f 4791 f43e 67b7 843d
00000030: d0eb 4cbe ee4d 77bf d017 32bf 6d11 cabe
00000040: c8c9 ad3d 3a21 5cbf b01f 44be d44b 823e
00000050: 0f74 6e3f 8d61 66bf b8f4 82bd 05e2 12bd
00000060: d43d 63bf 5c1d fa3e 5a4f 383e 90e9 5ebf
00000070: 8fd5 57bf 942d 47be b92f f23e 7b3a 2b3f
00000080: 625e 50bf 710c a63e 2326 6739 cf3a 2dbf
00000090: 3c59 5f3b c96a 6ebe 103f df3d e009 863e
000000a0: ab74 6c3f 4251 513f 4d24 613f 9675 483f
000000b0: 2de1 4abf ae1d f23e 1592 4e3f 7eaf 31be
000000c0: 7b93 07be 7252 6dbf 38b5 623f ff53 1c3f
000000d0: bf12 21bf 123f 043f 58e5 b3be 296b 2d3f

weight f4 [56, 1]
0.8782878 0.46969843 0.06495917 -0.40703118 0.71503115 -0.04401946 0.91289735 0.9708359
-0.99225986 -0.55534875 -0.08075249 -0.6896229 -0.44073963 -0.49411082 -0.24237025 -0.97957337
-0.40318048 0.76655746 0.9961699 -0.7205937 -0.5991986 -0.6539705 0.3909229 0.5385368
-0.4048736 0.7457212 0.52539015 0.6237738 0.17392969 0.9717932 -0.6280848 0.29530203
-0.1363244 0.41756988 -0.20391929 -0.40924835 0.5529876 -0.20250261 -0.4369545 -0.9721637
-0.6625016 0.21782672 0.2619233 -0.22724128 0.055567145 -0.7327322 0.9288174 0.7938727
-0.9161695 0.5818356 0.042413592 -0.23402679 0.98583174 -0.79257035 -0.3184085 0.6951126
00000000: 78d7 603f 507c f03e 5009 853d 6466 d0be
00000010: 480c 373f c04d 34bd a4b3 693f b488 783f
00000020: be04 7ebf 562b 0ebf 9061 a5bd 208b 30bf
00000030: a0a8 e1be 18fc fcbe e82f 78be 52c5 7abf
00000040: ac6d cebe 1c3d 443f fe04 7f3f d478 38bf
00000050: 1465 19bf 9c6a 27bf 0c27 c83e 8cdd 093f
00000060: 984b cfbe 96e7 3e3f f87f 063f a4af 1f3f
00000070: a01a 323e 70c7 783f 2aca 20bf d431 973e
00000080: a098 0bbe b8cb d53e 38d0 50be 0089 d1be
00000090: 9890 0d3f d85c 4fbe 80b8 dfbe b8df 78bf
000000a0: b499 29bf f80d 5f3e d01a 863e f0b1 68be
000000b0: 609a 633d 5694 3bbf fac6 6d3f 3e3b 4b3f
000000c0: 168a 6abf 2ef3 143f e0b9 2d3d b8a4 6fbe
000000d0: 785f 7c3f e4e5 4abf 7006 a3be e6f2 313f

bias f4 [56]
0.86582774 -0.024036888 -0.043309666 -0.9161624 -0.16658507 -0.24772212 -0.4080464 0.32692638
-0.6590343 0.69585824 -0.3513153 -0.22852321 -0.79027 0.64726526 -0.7544059 0.060566254
-0.74991447 0.20952141 0.31190452 -0.021177353 0.60300237 -0.95991397 0.61221385 -0.637737
0.41782662 0.26363724 -0.9077921 0.077446304 -0.22666276 -0.11080426 0.4353986 -0.8689775
-0.31130418 -0.47699788 -0.5273901 0.6737026 0.1487456 0.11052998 -0.078820586 -1.0167279
-0.56448567 -1.0096418 0.24580573 0.0838905 -0.4447761 -0.6890251 -0.6839227 -0.92024714
-0.81713116 0.6566335 0.95694715 0.30467513 -0.4496562 -0.17183553 -0.40907806 0.62421244
00000000: e3a6 5d3f 02e9 c4bc 7a65 31bd 9e89 6abf
00000010: 4795 2abe deaa 7dbe 75eb d0be e562 a73e
00000020: 79b6 28bf c423 323f 99df b3be fd01 6abe
00000030: 224f 4abf 2db3 253f bf20 41bf 5214 783d
00000040: 65fa 3fbf c88c 563e f3b1 9f3e 217c adbc
00000050: 5d5e 1a3f ecbc 75bf 0cba 1c3f bb42 23bf
00000060: 5fed d53e 76fb 863e 1065 68bf 2b9c 9e3d
00000070: 481a 68be 58ed e2bd 91ec de3e 4f75 5ebf
00000080: 4363 9fbe 1139 f4be 0a03 07bf c677 2c3f
00000090: c450 183e 8b5d e23d b06c a1bd 2424 82bf
000000a0: 2282 10bf f13b 81bf 7fb4 7b3e c8ce ab3d
000000b0: b1b9 e3be f363 30bf 8f15 2fbf 5195 6bbf
000000c0: 822f 51bf 2219 283f 7dfa 743f 61fe 9b3e
000000d0: 5639 e6be a7f5 2fbe ae72 d1be 63cc 1f3f

weight f4 [56, 1]
-0.6906178 -0.46938038 -0.3199998 0.3431424 0.6480409 0.88765526 -0.99449754 0.7196908
-0.05899024 0.9786427 0.07582021 -0.76756954 0.57349515 0.27224612 -0.21003294 0.07216549
-0.47345924 0.33782864 0.34686232 -0.101570845 -0.5647137 0.27740097 -0.73632216 -0.2849002
0.62951994 -0.38546932 0.9275594 -0.81640685 -0.5314561 -0.8728988 -0.8475386 -0.7005241
-0.2004528 0.42002618 0.42478037 0.9479145 -0.42946792 -0.32674265 0.2158215 -0.5967432
-0.5018017 0.70732796 0.45735955 -0.15755093 -0.7353549 -0.047938347 -0.4650247 0.473202
-0.7581346 -0.53783107 -0.12888575 -0.0012871027 -0.9261941 0.017924905 -0.97600555 0.26734507
00000000: 54cc 30bf a052 f0be 04d7 a3be 5cb0 af3e
00000010: 02e6 253f 603d 633f 6497 7ebf a83d 383f
00000020: c09f 71bd 5488 7a3f a047 9b3d 707f 44bf
00000030: 94d0 123f d863 8b3e e012 57be 80cb 933d
00000040: 4069 f2be e0f7 ac3e f097 b13e 6004 d0bd
00000050: 1491 10bf 8007 8e3e 9c7f 3cbf 70de 91be
00000060: 3828 213f 3c5c c5be 8874 6d3f 0a00 51bf
00000070: 820d 08bf 4c76 5fbf 4af8 58bf 8c55 33bf
00000080: 8043 4dbe ac0d d73e d07c d93e 86aa 723f
00000090: 38e3 dbbe d04a a7be 5000 5d3e 2ac4 18bf
000000a0: 1476 00bf 7213 353f 082b ea3e 0855 21be
000000b0: 3840 3cbf 005b 44bd b817 eebe 8847 f23e
000000c0: 1c15 42bf 4caf 09bf a0fa 03be 00b4 a8ba
000000d0: 0e1b 6dbf 40d7 923c 80db 79bf 74e1 883e

bias f4 [56]
-0.2714378 -0.13041715 0.6921137 -0.5238937 -0.7544592 -0.8489717 0.7759654 0.13948363
-0.06218373 0.58930355 -0.1285298 0.093258366 -0.6208879 0.135136 0.9512775 -0.24210459
0.41138995 0.45288628 0.5738507 0.37568927 -0.78094643 0.029928591 -0.57463175 -0.17881066
0.42841178 0.5796136 0.20335855 0.1095153 -0.12642847 0.9054437 0.2144515 0.7071014
0.8507292 0.31683522 -0.9765096 -0.5254922 0.23068452 0.24258083 -0.97717345 0.27165577
0.034804635 -0.11671026 0.14633024 -0.032629564 0.9807262 -0.51360476 0.6280047 0.8673795
0.2811808 -0.5325548 -0.96490604 -0.30622762 -0.5412668 -0.695187 -0.7519379 -0.26649764
00000000: e5f9 8abe 138c 05be 5d2e 313f e61d 06bf
00000010: 3d24 41bf 3656 59bf aba5 463f ccd4 0e3e
00000020: 5eb4 7ebd 99dc 163f 519d 03be 3efe be3d
00000030: 82f2 1ebf 1761 0a3e ec86 733f 44ea 77be
00000040: b4a1 d23e b6e0 e73e e1e7 123f 585a c03e
00000050: 1bec 47bf ce2c f53c 111b 13bf 241a 37be
00000060: ca58 db3e 8f61 143f 393d 503e 8f49 e03d
00000070: 7776 01be 29cb 673f 2d99 5b3e 9904 353f
00000080: 64c9 593f 3a38 a23e 88fc 79bf a886 06bf
00000090: 9038 6c3e 1c67 783e 0a28 7abf 7716 8b3e
000000a0: 4e8f 0e3d ca05 efbd 98d7 153e 94a6 05bd
000000b0: df10 7b3f 9a7b 03bf ebc4 203f 950c 5e3f
000000c0: eef6 8f3e 8355 08bf 1504 77bf dec9 9cbe
000000d0: 7690 0abf c6f7 31bf 017f 40bf 6172 88be

weight f4 [56, 1]
0.7065456 -0.97083557 0.83649755 -0.94810593 -0.6344731 -0.65528476 -0.3719108 0.118490696
-0.10157347 -0.8074955 -0.729275 -0.2674718 -0.8151082 0.45739663 0.31682062 -0.0012979507
-0.46607602 0.17164385 0.4435053 0.8056278 -0.745455 -0.99264276 -0.13454843 0.7357
0.8254781 0.30902147 0.7997546 -0.04848385 -0.19173014 0.6556703 0.32696152 -0.7150507
-0.9557929 0.8978194 -0.10281503 -0.06397152 0.5434265 -0.47717726 0.6980641 0.48563516
0.97291124 0.9284531 0.7341237 -0.7003709 -0.34815013 0.96554327 -0.18008447 -0.37762523
0.4746728 0.8787309 0.8689662 0.2384249 -0.90281487 0.9286306 -0.17863774 -0.19163322
00000000: 2ce0 343f ae88 78bf b424 563f 12b7 72bf
00000010: d46c 22bf bec0 27bf 186b bebe 40ab f23d
00000020: c005 d0bd 06b8 4ebf c4b1 3abf 10f2 88be
00000030: eeaa 50bf e42f ea3e 5036 a23e 0020 aaba
00000040: 84a1 eebe 68c3 2f3e 2013 e33e a03d 4e3f
00000050: 24d6 3ebf d61d 7ebf 10c7 09be d656 3c3f
00000060: 8852 533f 1038 9e3e b8bc 4c3f 0097 46bd
00000070: e854 44be 02da 273f 8067 a73e 900d 37bf
00000080: d8ae 74bf 7ed7 653f b090 d2bd 8003 83bd
00000090: 001e 0b3f 9450 f4be 54b4 323f 2ca5 f83e
000000a0: b610 793f 1aaf 6d3f 88ef 3b3f 824b 33bf
000000b0: bc40 b2be d82d 773f 1068 38be 1858 c1be
000000c0: 5008 f33e 82f4 603f 9274 5e3f a825 743e
000000d0: e01e 67bf bcba 6d3f d0ec 36be 803b 44be

bias f4 [56]
0.11402743 0.5610928 0.19123287 -0.41107723 -0.720759 -0.5639382 0.73074454 -0.58927447
0.18184711 -0.46079934 -0.7293369 0.4975675 0.62532973 -0.15768228 -0.1972469 0.9070718
-0.1959983 0.48909485 0.93509233 0.8050355 -0.5700744 -0.5138198 0.21656056 0.6124244
0.2504059 -0.50762475 -0.08059195 -0.28672728 -0.7561552 0.19883415 0.66884816 0.8467159
0.9793801 0.031064942 -0.27325973 0.00042765946 0.5438959 -0.7855766 0.9922115 0.813999
-0.6069899 -0.49630615 -0.6851778 0.35780624 -0.54795027 -0.89469004 0.2543168 -0.85058004
-0.35876435 0.7773013 -0.018224677 0.5186232 0.45791835 0.9497098 0.21808822 -0.7874697
00000000: 3787 e93d c7a3 0f3f 8dd2 433e b778 d2be
00000010: a983 38bf 415e 10bf 1312 3b3f b1da 16bf
00000020: 2136 3a3e e4ed ebbe d3b5 3abf 2bc1 fe3e
00000030: 9c15 203f 7777 21be 17fb 49be dc35 683f
00000040: c7b3 48be a46a fa3e 3662 6f3f ce16 4e3f
00000050: 65f0 11bf b289 03bf 0dc2 5d3e d8c7 1c3f
00000060: 3435 803e b2f3 01bf 640d a5bd ebcd 92be
00000070: 6393 41bf 2e9b 4b3e a239 2b3f 60c2 583f
00000080: a7b8 7a3f e87b fe3c b3e8 8bbe 7b37 e039
00000090: c33c 0b3f 8c1b 49bf 9301 7e3f 3d62 503f
000000a0: b163 1bbf d71b febe d067 2fbf 6132 b73e
000000b0: 7846 0cbf 680a 65bf d035 823e 9dbf 59bf
000000c0: f6af b7be 38fd 463f eb4b 95bc 7dc4 043f
000000d0: 4674 ea3e 2e20 733f 8552 5f3e 9d97 49bf

mask f4 [16]
0.009557412 -0.0031935608 -0.00029114634 0.0022948736 -0.011701296 0.0007668145 0.00026323894 -0.003647586
-0.0019477216 -0.002241362 0.00041940185 0.014193735 -0.0038943316 0.00030343435 -0.00072384253 -0.0050121723
00000000: b196 1c3c 0f4b 51bb 00a5 98b9 9765 163b
00000010: cbb6 3fbc 0d04 493a 5503 8a39 570c 6fbb
00000020: b14a ffba d0e3 12bb 2ae3 db39 d78c 683c
00000030: 0b38 7fbb 4516 9f39 40c0 3dba 263d a4bb

weight f4 [16]
1.0132346 0.99439585 0.99921906 1.0059156 0.9827372 0.9983544 1.0009038 0.9941764
0.99559253 0.9962521 1.0011035 1.0197937 0.9910028 1.0005819 0.9985068 0.9904647
00000000: acb1 813f ba90 7e3f d2cc 7f3f d8c1 803f
00000010: aa94 7b3f 2794 7f3f 9e1d 803f 5882 7e3f
00000020: 27df 7e3f 610a 7f3f 2924 803f 9a88 823f
00000030: 5cb2 7d3f 1113 803f 249e 7f3f 188f 7d3f

bias f4 [16]
-0.012571274 -0.00754565 0.0023420856 -0.012799426 0.014950202 0.016116234 -0.0038444689 -0.011696333
0.009150074 -0.0077804057 -0.004144983 0.01230742 0.005883669 -0.0003400267 0.0007258013 -0.0064682118
00000000: bff7 4dbc 8041 f7bb ad7d 193b afb4 51bc
00000010: b1f1 743c 3106 843c 7cf3 7bbb faa1 3fbc
00000020: 31ea 153c c6f2 febb a3d2 87bb 10a5 493c
00000030: cbcb c03b 9c45 b2b9 b343 3e3a 4bf3 d3bb

weight f4 [16, 56]
0.12825862 -0.03651849 -0.13116251 0.005223883 -0.08432233 0.2876574 -0.33867535 -0.018548312
-0.34864253 0.16650611 -0.4282618 -0.113598526 0.17268926 -0.22624226 -0.07377358 -0.45914558
-0.110555306 -0.24653192 -0.21358606 -0.13520996 0.07156533 0.3173511 -0.30116555 0.069031656
-0.12781997 0.03970703 -0.13204485 0.19283195 0.035367522 0.09888919 -0.051911466 0.36595237
0.33309707 0.2290802 0.20341352 0.03522013 -0.01327679 -0.0005378325 0.1470675 -0.049496077
-0.36874846 0.18759795 0.2607312 0.23196943 0.025894767 0.0022632696 -0.17598122 -0.004540687
0.075590365 -0.17425817 -0.13355021 -0.21485828 -0.2125154 -0.2532724 0.34671742 -0.08279886
0.086198606 0.27921104 0.1059652 0.13744153 -0.622008 0.1049949 -0.2122782 -0.16393779
0.15157555 0.35529032 0.102633536 0.6070385 -0.35093042 -0.095992245 0.12017839 0.06913331
-0.22402202 0.06418178 0.020676874 -0.1310777 -0.072968856 0.08739356 0.08482729 -0.010770935
-0.14960335 -0.03661161 -0.08620749 0.21314983 -0.11522675 0.2206145 0.13815166 -0.038085345
0.03630257 -0.007749748 0.4409866 -0.19196239 -0.08718776 0.30082783 0.122033015 0.21972367
0.2768494 0.04067647 0.07459524 0.124801375 0.09876002 0.109433755 -0.25558493 -0.07703975
-0.29201496 -0.17580321 0.011827696 -0.026393393 -0.3654279 -0.0067167953 0.08403914 0.14005621
-0.22592597 -0.17869952 0.28094274 -0.09045549 0.15488023 0.03271215 -0.18460351 0.2895161
0.10055496 0.36007965 -0.0530512 0.09189457 0.33668467 -0.06185689 0.0004201515 0.014573541
0.16871512 0.08856114 0.019364491 -0.37150666 -0.0939549 0.19518726 0.22787398 -0.018743927
0.023040285 -0.25046396 -0.36884257 0.30373612 -0.09173094 -0.10169504 -0.13415138 -0.037789866
-0.0015998819 0.18122762 0.39799136 -0.03045194 0.16199185 0.03533562 0.19467475 0.084885165
0.07004024 0.126244 0.017310722 0.11615251 -0.026218819 0.16643557 -0.30093083 -0.06240942
-0.21384555 -0.29052123 -0.027694415 0.15516277 0.008370689 -0.33611828 -0.043565847 -0.04013667
-0.04919507 -0.02611546 -0.108206965 -0.009467454 -0.2183381 -0.33868158 0.22696857 0.11159781
0.08228932 0.2045862 0.13792337 -0.103096366 -0.015657049 -0.24896812 0.055268645 0.1709967
0.064042784 0.14405535 0.05374383 -0.18400754 0.08171987 -0.18646926 0.06560337 0.1159927
-0.3316983 -0.17742598 -0.0750719 0.10046403 -0.19461212 -0.19922017 0.006717463 0.051150866
0.30571517 -0.079444095 0.1363117 -0.21723016 -0.17444648 -0.0030159221 0.33028886 0.39415553
-0.073610395 0.0021132717 -0.24106525 -0.00034254548 0.16162136 0.012792608 0.13551676 0.17376947
0.27356276 -0.29252508 -0.25217116 0.1423354 0.016341599 0.06179323 -0.36861074 -0.4407725
-0.17338218 -0.30746242 -0.0061597168 -0.44183296 -0.2609436 -0.2417393 -0.058065694 -0.17290762
-0.026877757 -0.15954976 -0.07784949 -0.12560196 -0.010539754 -0.10828861 -0.00024591896 0.31470636
-0.2945366 0.01918559 0.2127988 0.1475557 -0.15926945 -0.2423656 -0.0025980296 -0.25790903
-0.0114525445 -0.09636174 0.030355869 0.14490244 0.1197304 0.3482632 0.12821965 -0.008688299
00000000: 3a56 033e 6a94 15bd 774f 06be 1b2d ab3b
00000010: 30b1 acbd d547 933e db66 adbe a1f2 97bc
00000020: 4681 b2be 9480 2a3e 2145 dbbe 58a6 e8bd
00000030: 74d5 303e 0dac 67be 9a16 97bd 2115 ebbe
00000040: d26a e2bd dd72 7cbe 4eb6 5abe 7b74 0abe
00000050: d890 923d d87b a23e 5f32 9abe 7860 8d3d
00000060: 3de3 02be d7a3 223d c436 07be bd75 453e
00000070: 89dd 103d 6a86 ca3d 1ea1 54bd 1c5e bb3e
00000080: b38b aa3e 0094 6a3e a24b 503e fc42 103d
00000090: e586 59bc 54fd 0cba dd98 163e 66bc 4abd
000000a0: 99cc bcbe ad19 403e 8f7e 853e 6589 6d3e
000000b0: 4321 d43c 5d53 143b 6c34 34be 0bca 94bb
000000c0: 1fcf 9a3d bc70 32be 63c1 08be cf03 5cbe
000000d0: a39d 59be ecac 81be f284 b13e 7392 a9bd
000000e0: e588 b03d c0f4 8e3e 4804 d93d 79bd 0c3e
000000f0: eb3b 1fbf 9107 d73d 755f 59be 4fdf 27be
00000100: 9f36 1b3e 9de8 b53e 8831 d23d e066 1b3f
00000110: 27ad b3be 9597 c4bd 1620 f63d c495 8d3d
00000120: 0766 65be bd71 833d 8c62 a93c 3c39 06be
00000130: b270 95bd 65fb b23d eeb9 ad3d 9378 30bc
00000140: 9f31 19be 0ef6 15bd 8d8d b0bd f343 5a3e
00000150: 01fc ebbd c4e8 613e a177 0d3e 61ff 1bbd
00000160: 01b2 143d 99f1 fdbb ffc8 e13e ca91 44be
00000170: 7f8f b2bd 1b06 9a3e 72ec f93d 3eff 603e
00000180: 34bf 8d3e 5f9c 263d 64c5 983d dd97 ff3d
00000190: b242 ca3d ce1e e03d 07dc 82be 04c7 9dbd
000001a0: fc82 95be c205 34be f4c8 413c f536 d8bc
000001b0: 5e19 bbbe 9018 dcbb b61c ac3d e56a 0f3e
000001c0: 2359 67be 02fd 36be bad7 8f3e ba40 b9bd
000001d0: ec98 1e3e 2dfd 053d b408 3dbe 743b 943e
000001e0: c2ef cd3d 5c5c b83e 374c 59bd 3833 bc3d
000001f0: ef61 ac3e a65d 7dbd c847 dc39 dcc5 6e3c
00000200: a8c3 2c3e 8b5f b53d 48a2 9e3c 1f36 bebe
00000210: 6d6b c0bd 2bdf 473e cc57 693e dd8c 99bc
00000220: fbbe bc3c d03c 80be efd8 bcbe 4d83 9b3e
00000230: 6edd bbbd 7d45 d0bd fb5e 09be 8cc9 1abd
00000240: 21b3 d1ba bc93 393e 86c5 cb3e 5976 f9bc
00000250: 31e1 253e 15bc 103d d158 473e 46d8 ad3d
00000260: 4271 8f3d 1b46 013e 37cf 8d3c 5ee1 ed3d
00000270: d9c8 d6bc 166e 2a3e 9b13 9abe 05a1 7fbd
00000280: 54fa 5abe 33bf 94be 66df e2bc fde2 1e3e
00000290: 3725 093c b217 acbe 1a72 32bd 5966 24bd
000002a0: c580 49bd 17f0 d5bc 9d9b ddbd 611d 1bbc
000002b0: 0694 5fbe ac67 adbe 736a 683e 658d e43d
000002c0: 4e87 a83d 0b7f 513e c93b 0d3e 3024 d3bd
000002d0: 3643 80bc 80f1 7ebe 6061 623d c219 2f3e
000002e0: dd28 833d 3f83 133e 7e22 5c3d 796c 3cbe
000002f0: bf5c a73d ccf1 3ebe 0f5b 863d 958d ed3d
00000300: 5cd4 a9be 28af 35be 4cbf 99bd 16c0 cd3d
00000310: 6648 47be 5f00 4cbe 2a1e dc3b 9283 513d
00000320: b386 9c3e 96b3 a2bd 4b95 0b3e 9571 5ebe
00000330: 19a2 32be c7a6 45bb 9f1b a93e c1ce c93e
00000340: 0cc1 96bd d17e 0a3b cfd9 76be ad97 b3b9
00000350: 1280 253e 1698 513c e8c4 0a3e a0f0 313e
00000360: 6b10 8c3e d9c5 95be 941c 81be 5fc0 113e
00000370: d1de 853c e61a 7d3d 8cba bcbe efac e1be
00000380: 198b 31be b76b 9dbe 73d7 c9bb ee37 e2be
00000390: 669a 85be 828a 77be 4bd6 6dbd b20e 31be
000003a0: be2e dcbc 0361 23be 8e6f 9fbd cd9d 00be
000003b0: efae 2cbc 6bc6 ddbd afee 80b9 3121 a13e
000003c0: 80cd 96be 192b 9d3c eee7 593e d718 173e
000003d0: 8817 23be b02e 78be b443 2abb a70c 84be
000003e0: 74a3 3bbc 4e59 c5bd dfac f83c 4e61 143e
000003f0: 3635 f53d 8e4f b23e 034c 033e 5e59 0ebc

bias f4 [16]
0.0015179979 0.008271043 0.004806039 -0.004032984 -0.0023232296 0.0016761594 0.00252054 5.7119403e-05
-0.0041466937 -0.0055457084 0.0038290427 -5.3822125e-05 -0.005160654 -0.00444398 -0.0020778899 -0.0011217558
00000000: 8ff7 c63a 4583 073c fa7b 9d3b 1f27 84bb
00000010: 5341 18bb 94b2 db3a a52f 253b 7e93 6f38
00000020: fde0 87bb c6b8 b5bb adf0 7a3b 11bf 61b8
00000030: b41a a9bb ce9e 91bb 352d 08bb e107 93ba

weight f4 [16, 16]
0.5145015 -0.466128 0.2573928 -0.59889764 0.005412218 0.12747511 -0.6248371 -0.20793411
0.28816634 -0.0029032936 0.09665076 -0.016578067 0.4574865 0.44577074 -0.17170095 -0.23038761
-0.07958764 -0.08265393 0.46201006 -0.28900462 0.013272516 -0.42078793 -0.41694632 0.27609795
-0.12483475 -0.16480038 -0.12889758 -0.26399994 -0.19634826 -0.62768734 -0.26807112 -0.0023492249
-0.4754209 0.90703356 -0.14015426 -0.27709514 -0.5637396 -0.2877857 -0.62648636 -0.17433698
-0.36483118 0.50794137 -0.282296 0.3603495 -0.27086914 -0.3749984 -0.055134796 0.06570145
0.011928272 0.13963075 -0.20201659 0.24199298 -0.42595702 0.11153557 -0.09893848 0.7965706
-0.034753963 0.43689576 0.3178431 0.17532137 0.4207507 0.4342546 -0.0835417 0.4706737
0.5591382 -0.57308954 0.21710783 -0.42346022 -0.26030204 -0.2875084 0.18792404 0.17945458
0.16166922 -0.23771584 0.62466305 -0.3992654 0.032502282 -0.26077914 -0.36722046 0.102831766
0.51118696 0.3885121 -0.88544995 -0.38057482 -0.33169103 0.07734474 -0.15697043 -0.14694513
0.2237791 0.12536709 -0.43150714 -0.120610446 0.17613693 0.012987391 -0.29102406 -0.036897406
0.14862438 0.6784135 0.20093934 -0.43519562 -0.16215804 -0.399186 0.28121108 0.43920532
0.17866313 0.37181947 -0.16218096 0.7144186 -0.13346481 0.22156247 0.1924401 -0.43765816
0.070990734 0.2686914 0.40110698 -0.6636149 0.018489217 -0.22567272 -0.03196597 0.39514253
0.30991894 -0.2850248 -0.32284373 -0.33715206 0.10751086 -0.44443098 -0.027576257 -0.15606956
-0.14177741 0.37314296 0.20912825 0.52648044 -0.56201696 -0.23912787 -0.08126696 0.09383362
0.34540772 0.8056346 -0.3018015 0.49121863 0.44406068 0.13260461 -0.7132923 0.16412146
0.26308495 0.1944624 -0.5146616 0.22634342 -0.4468407 0.30137962 -0.35636947 -0.0046999627
-0.5728221 -0.300328 0.3209126 0.50613475 0.32036355 0.7667969 0.31332323 -0.0685631
0.110929884 -0.22764233 -0.5713612 -0.10062461 -0.19504048 0.5396327 -0.058903437 0.28738973
0.09370855 0.44224462 -0.35742512 -0.26071617 0.07946291 0.38910064 0.58505243 -0.041468296
-0.7851577 -1.1299504 -0.1975426 -0.17408991 0.30224386 -0.5723456 -0.40700454 -0.14576676
0.30845752 -0.27077606 -0.3134335 0.012915203 0.35195982 0.037326235 -0.60528314 -0.30515683
-0.2091282 0.56082946 0.17720996 -0.0037189065 0.42166644 0.07642707 0.2161308 -0.5901997
-0.34640932 -0.031721592 -0.15555723 -0.39535898 -0.62805027 -0.49008396 -0.2734267 -0.15019208
0.050860204 0.4559451 0.3475489 -0.121848606 0.48625168 0.6650155 -0.51207906 0.36732352
-0.500879 0.3346015 -0.51083624 -0.00031632523 -0.67527455 0.15496066 0.04909659 -0.122121446
-0.09863877 0.38145205 -0.23848993 -0.5373732 -0.22663073 0.176739 0.25878948 -0.17910829
0.21365368 -0.26097214 0.20177965 0.1647826 0.16911814 -0.02470456 -0.00766897 -0.04176665
-0.04715572 -0.6299825 0.029579384 -0.030821789 -0.63068 0.27535585 0.17201367 0.30779517
-0.25642595 0.62726605 0.53550583 -0.09884192 -0.2610981 -0.48245788 -0.04638872 -0.52156454
00000000: 5fb6 033f 54a8 eebe fdc8 833e 5b51 19bf
00000010: fa58 b13b d688 023e 53f5 1fbf aeec 54be
00000020: 8a8a 933e 2f45 3ebb d5f0 c53d bace 87bc
00000030: ac3b ea3e 103c e43e 60d2 2fbe bbea 6bbe
00000040: d8fe a2bd 7746 a9bd 958c ec3e 6af8 93be
00000050: f874 593c 8471 d7be fd79 d5be b65c 8d3e
00000060: 5da9 ffbd 6ec1 28be bafd 03be 002b 87be
00000070: 850f 49be 1eb0 20bf 9e40 89be 74f5 19bb
00000080: 5e6a f3be 5a33 683f 9984 0fbe 6adf 8dbe
00000090: 3d51 10bf a658 93be 6961 20bf 6585 32be
000000a0: 27cb babe 7208 023f 1a89 90be bb7f b83e
000000b0: 5caf 8abe caff bfbe 06d5 61bd 7b8e 863d
000000c0: cd6e 433c 5dfb 0e3e 70dd 4ebe 02cd 773e
000000d0: 0a17 dabe c36c e43d 42a0 cabd 0dec 4b3f
000000e0: 2c5a 0ebd cdb0 df3e 55bc a23e 7287 333e
000000f0: a36c d73e 9e56 de3e e917 abbd 25fc f03e
00000100: ae23 0f3f ffb5 12bf 8451 5e3e c7cf d8be
00000110: 4f46 85be 4d34 93be 296f 403e f1c2 373e
00000120: 9e8c 253e c86b 73be ebe9 1f3f 846c ccbe
00000130: 1d21 053d d884 85be 5204 bcbe 7699 d23d
00000140: 26dd 023f 0feb c63e d9ac 62bf b4da c2be
00000150: 68d3 a9be eb66 9e3d dbbc 20be c978 16be
00000160: 5926 653e 3b60 003e 81ee dcbe 9c02 f7bd
00000170: 3d5d 343e 11c9 543c 1b01 95be bc21 17bd
00000180: fd30 183e 82ac 2d3f 0bc3 4d3e f6d1 debe
00000190: c20c 26be 1b62 ccbe e6fa 8f3e 85df e03e
000001a0: 78f3 363e 1f5f be3e c412 26be 23e4 363f
000001b0: 00ab 08be 46e1 623e 040f 453e bb14 e0be
000001c0: 9763 913d eb91 893e e55d cd3e abe2 29bf
000001d0: b376 973c c016 67be c0ee 02bd 1f50 ca3e
000001e0: b2ad 9e3e c5ee 91be c64b a5be 329f acbe
000001f0: a72e dc3d 758c e3be 9ae7 e1bc b3d0 1fbe
00000200: 192e 11be 980c bf3e b725 563e 6cc7 063f
00000210: 58e0 0fbf f0dd 74be 4b6f a6bd d72b c03d
00000220: 48d9 b03e 123e 4e3f ba85 9abe 0281 fb3e
00000230: ec5b e33e 81c9 073e 539a 36bf 750f 283e
00000240: 12b3 863e 2721 473e ddc0 03bf 92c6 673e
00000250: 4ec8 e4be 6e4e 9a3e 0f76 b6be 2502 9abb
00000260: 78a4 12bf 97c4 99be a84e a43e 0c92 013f
00000270: b106 a43e cd4c 443f e76b a03e d06a 8cbd
00000280: 352f e33d 121b 69be ba44 12bf 4714 cebd
00000290: b1b8 47be 5e25 0a3f bb44 71bd bf24 933e
000002a0: 45ea bf3d e36d e23e 6d00 b7be 977c 85be
000002b0: 73bd a23d 3338 c73e ffc5 153f a9da 29bd
000002c0: 1800 49bf 37a2 90bf 9b48 4abe a044 32be
000002d0: b5bf 9a3e 3e85 12bf e662 d0be e243 15be
000002e0: 25ee 9d3e 29a3 8abe 5b7a a0be 4a9a 533c
000002f0: 1434 b43e 65e3 183d d6f3 1abf 843d 9cbe
00000300: b425 56be 8592 0f3f 8776 353e e6b8 73bb
00000310: aae4 d73e cc85 9c3d 6451 5d3e 5417 17bf
00000320: 905c b1be 80ee 01bd 654a 1fbe 7e6c cabe
00000330: e7c7 20bf 49ec fabe 96fe 8bbe f4cb 19be
00000340: ca52 503d a371 e93e eef1 b13e c38b f9bd
00000350: fbf5 f83e 753e 2a3f 9d17 03bf d411 bc3e
00000360: 9b39 00bf e350 ab3e 2ac6 02bf 74d8 a5b9
00000370: cbde 2cbf 02ae 1e3e 8219 493d cf1a fabd
00000380: 2003 cabd af4d c33e b436 74be 4a91 09bf
00000390: e311 68be 12fb 343e 0e80 843e 2a68 37be
000003a0: 08c8 5a3e 249e 85be 539f 4e3e c5bc 283e
000003b0: 4e2d 2d3e 3861 cabc fc4b fbbb 8213 2bbd
000003c0: 5b26 41bd 8846 21bf 7750 f23c fa7d fcbc
000003d0: 3f74 21bf 71fb 8c3e 5a24 303e 5497 9d3e
000003e0: 434a 83be 8294 203f e916 093f a26d cabd
000003f0: a6ae 85be b804 f7be 1902 3ebd 4185 05bf

bias f4 [16]
-0.008147464 -2.7855283e-05 0.0008176308 -0.008939382 0.007212534 -0.0019044029 -0.005379109 0.009814071
0.0056089754 0.008987373 -0.006197733 -0.0034815005 -0.003329546 0.0066289436 0.008114688 0.0033958503
00000000: f17c 05bc c4aa e9b7 4656 563a 7c76 12bc
00000010: 1f57 ec3b 289d f9ba 3d43 b0bb 32cb 203c
00000020: 7fcb b73b c63f 133c 5a16 cbbb e329 64bb
00000030: 8334 5abb 9c37 d93b 78f3 043c ea8c 5e3b

weight f4 [32, 16]
0.301971 0.2753179 0.21971461 0.25612235 0.30209568 0.1083552 0.16392343 -0.154591
-0.009784694 0.06056666 0.16353548 0.2792499 0.25164777 0.05437259 0.12127995 -0.055425182
-0.19172014 -0.21249329 0.2567353 -0.31016308 -0.12385347 -0.33690387 0.2870872 0.33122975
0.29266402 -0.20951086 0.31126785 -0.11604494 0.21136045 -0.14032185 0.23343149 -0.04298638
-0.24421209 -0.093191296 -0.2868308 -0.18538778 0.23651612 0.23278067 -0.03288443 0.29844493
-0.20984098 -0.23527119 -0.34175077 0.122624464 0.08038261 -0.28407305 0.05258376 -0.16267556
0.008619726 0.1762959 0.06764952 0.14685997 -0.05704515 0.19826542 0.080131255 -0.25538653
0.10260373 -0.3068573 -0.008478609 0.1554072 -0.058500238 -0.21854086 0.15392102 -0.13066603
-0.060209125 -0.26770067 0.15717687 0.03020823 -0.1274911 -0.3274127 0.13847703 -0.036714815
0.23307234 0.26238713 -0.020027753 -0.2632977 0.28071472 0.2681778 -0.09776236 -0.07916167
-0.09505202 0.15511367 0.078545675 -0.2066183 0.26836014 0.07536139 -0.23286282 0.34578452
-0.025440685 0.2835631 -0.34231928 0.237638 0.11022341 -0.044643722 0.34338427 0.18024758
-0.036878128 0.07730416 0.11407975 0.017348882 -0.2275353 0.021523556 -0.014014114 -0.25784445
0.24705319 -0.2659937 0.15565044 0.0030971307 0.20089196 0.018897407 -0.020051876 -0.13215238
0.19640447 -0.21139766 -0.26503703 -0.26888254 -0.18383123 -0.27643043 0.13623713 0.054576788
-0.28689426 -0.23907456 -0.030911056 -0.17631167 0.1684387 -0.2770242 0.065330245 -0.21626852
-0.31606033 -0.21230447 -0.007133228 -0.108263545 0.10054065 0.18203719 0.10622957 -0.31736395
0.3427547 -0.08477095 0.15226139 0.11243167 -0.27620587 -0.2596429 0.08732933 -0.08882333
-0.10369142 -0.035594735 -0.17920506 -0.34528792 -0.33353624 0.12051322 0.011285875 0.023413163
-0.1656127 0.13715269 -0.02004969 0.04598704 -0.30336767 0.1024916 -0.19490954 -0.27581796
-0.05596038 -0.073635496 0.15405303 -0.34993014 -0.2795123 0.037556894 -0.17495438 -0.2097303
-0.06837049 -0.0477756 0.02173346 0.16082932 0.12764055 -0.30109817 0.05420868 0.24562886
0.32363337 0.16560552 0.35367775 -0.24961193 0.2087483 0.2546343 0.04492998 -0.2769302
0.29242486 -0.10551051 -0.2780405 -0.24974911 0.29914668 0.04832975 0.28119665 0.082621805
-0.053273413 0.3431445 -0.30565304 -0.31098226 0.24418736 -0.06397057 0.27778926 0.21189705
0.058793966 0.23289144 0.29960856 0.15278086 -0.046876952 0.24145696 0.2607786 -0.0013288012
-0.26988733 -0.19827875 0.21060574 -0.026332628 -0.08683858 -0.034413572 -0.21784592 -0.21911624
0.06991087 -0.19236982 -0.32363307 0.3291711 0.27940953 0.06814027 -0.02441868 0.082743905
0.10453324 0.34986734 0.2876384 0.21096231 -0.32732415 -0.07716916 0.09496177 -0.15729432
-0.2735735 0.22473297 -0.27510694 -0.060974646 -0.21706843 -0.081471644 -0.1301917 -0.14972818
-0.15206932 0.31088945 -0.15094815 -0.07707785 0.32556683 0.2531363 0.22182599 -0.306444
0.13061431 -0.32488403 -0.2880095 -0.23004265 0.13373059 -0.13195962 -0.019160261 0.14967452
00000000: f19b 9a3e 78f6 8c3e defc 603e 7822 833e
00000010: 49ac 9a3e 55e9 dd3d 8bdb 273e 1a4d 1ebe
00000020: fb4f 20bc bf14 783d d875 273e d8f9 8e3e
00000030: fad7 803e cbb5 5e3d 9f61 f83d 8405 63bd
00000040: 4952 44be d797 59be cf72 833e b2cd 9ebe
00000050: e3a6 fdbd aa7e acbe 18fd 923e f296 a93e
00000060: 0fd8 953e 048a 56be 805e 9f3e f8a8 edbd
00000070: e06e 583e 88b0 0fbe aa08 6f3e 7d12 30bd
00000080: bc12 7abe 14db bebd 7ddb 92be 4bd6 3dbe
00000090: 4831 723e 0e5e 6e3e d3b1 06bd c6cd 983e
000000a0: 8ee0 56be eeea 70be f5f9 aebe 8922 fb3d
000000b0: a39f a43d 0672 91be 1262 573d 6c94 26be
000000c0: c039 0d3c ea86 343e d58b 8a3d 7662 163e
000000d0: 2da8 69bd 1706 4b3e db1b a43d 06c2 82be
000000e0: e821 d23d 661c 9dbe dde9 0abc 1123 1f3e
000000f0: f29d 6fbd 2dc9 5fbe 799d 1d3e 51cd 05be
00000100: d89d 76bd 1010 89be f9f2 203e 4077 f73c
00000110: 078d 02be a3a2 a7be eccc 0d3e 4662 16bd
00000120: 84aa 6e3e 9b57 863e 3e11 a4bc f5ce 86be
00000130: d7b9 8f3e 9a4e 893e a237 c8bd 831f a2bd
00000140: a2aa c2bd 1ed6 1e3e 8edc a03d bf93 53be
00000150: 8066 893e 1357 9a3d 9773 6ebe ab0a b13e
00000160: fc68 d0bc 2f2f 913e 7944 afbe 6057 733e
00000170: d0bc e13d 56dc 36bd 10d0 af3e d292 383e
00000180: 850d 17bd a551 9e3d a5a2 e93d 3e1f 8e3c
00000190: 04ff 68be 2b52 b03c 749b 65bc 3004 84be
000001a0: 83fb 7c3e 5430 88be d462 1f3e 3bf9 4a3b
000001b0: 9fb6 4d3e bcce 9a3c d543 a4bc f452 07be
000001c0: 411e 493e a178 58be efb2 87be f9aa 89be
000001d0: 413e 3cbe 4a88 8dbe bf81 0b3e e98b 5f3d
000001e0: cee3 92be f6cf 74be 2f39 fdbc 0c8b 34be
000001f0: 327b 2c3e 1ed6 8dbe ddcb 853d 7f75 5dbe
00000200: a9d2 a1be 5866 59be dabd e9bb 47b9 ddbd
00000210: 42e8 cd3d f567 3a3e e48e d93d 877d a2be
00000220: 8b7d af3e 649c adbd 69ea 1b3e 9342 e63d
00000230: db6a 8dbe eaef 84be b8d9 b23d 02e9 b5bd
00000240: 2b5c d4bd c9cb 11bd 8881 37be 94c9 b0be
00000250: 43c5 aabe a3cf f63d 64e8 383c f6cc bf3c
00000260: 6096 29be c171 0c3e 3f3f a4bc e85c 3c3d
00000270: 0253 9bbe 1ee7 d13d 5e96 47be 0338 8dbe
00000280: b636 65bd 35ce 96bd 14c0 1d3e 0b2a b3be
00000290: 3c1c 8fbe 42d5 193d 3e27 33be 8ac3 56be
000002a0: d405 8cbd 59b0 43bd 5e0a b23c 71b0 243e
000002b0: 34b4 023e 8a29 9abe ec09 5e3d 2286 7b3e
000002c0: 46b3 a53e 7e94 293e 4015 b53e 459a 7fbe
000002d0: 1dc2 553e 6d5f 823e 8008 383d ccc9 8dbe
000002e0: b6b8 953e e515 d8bd 535b 8ebe 3bbe 7fbe
000002f0: c129 993e 6af5 453d 02f9 8f3e 9f35 a93d
00000300: 3935 5abd a3b0 af3e 8e7e 9cbe 1139 9fbe
00000310: 400c 7a3e 0103 83bd 653a 8e3e 8afb 583e
00000320: f1d1 703d 187b 6e3e 4b66 993e 9672 1c3e
00000330: 0c02 40bd 7e40 773e c684 853e 2b2b aeba
00000340: ac2e 8abe 9609 4bbe 08a9 573e 86b7 d7bc
00000350: 6dd8 b1bd 3ff5 0cbd 0013 5fbe 0260 60be
00000360: 6e2d 8f3d 98fc 44be 3cb3 a5be 1d89 a83e
00000370: c40e 8f3e 208d 8b3d af09 c8bc a375 a93d
00000380: 8615 d63d d021 b33e 5745 933e 8106 583e
00000390: 0897 a7be dd0a 9ebd 517b c23d c311 21be
000003a0: d311 8cbe 6620 663e d1da 8cbe 8dc0 79bd
000003b0: 3047 5ebe 9bda a6bd f950 05be 5852 19be
000003c0: 0fb8 1bbe e72c 9f3e 2792 1abe feda 9dbd
000003d0: b2b0 a63e 159b 813e 5a26 633e 3ae6 9cbe
000003e0: c2bf 053e 3357 a6be fb75 93be 4d90 6bbe
000003f0: acf0 083e 6c20 07be fbf5 9cbc 4744 193e

bias f4 [32]
-0.009507397 -0.0023174759 0.001586308 -0.008386378 0.007204836 0.012947522 -0.0029585278 -0.006327222
0.007142508 -0.0044887373 -0.0030802588 0.0074245837 0.00438413 0.00010959287 -0.00018606165 -0.004585711
-0.0017553897 -0.0002010729 -0.00051857205 -0.0025327133 -0.0022881667 0.0057070768 0.0005444808 3.108339e-05
0.0015577504 0.0007828891 -3.055336e-06 0.0031095399 -0.0011809461 -0.00054908433 -0.0008277364 -0.00030725924
00000000: eac4 1bbc cbe0 17bb aaeb cf3a 0567 09bc
00000010: 8b16 ec3b d821 543c dce3 41bb 9654 cfbb
00000020: b30b ea3b 4216 93bb 2bde 49bb ec49 f33b
00000030: bfa8 8f3b 39d5 e538 8b19 43b9 bb43 96bb
00000040: 1b15 e6ba 18d7 52b9 c8f0 07ba e1fb 25bb
00000050: 11f5 15bb 6e02 bb3b 7dbb 0e3a 895f 0238
00000060: 6e2d cc3a cc3a 4d3a 460a 4db6 6cc9 4b3b
00000070: fac9 9aba 6df0 0fba 73fc 58ba a317 a1b9

weight f4 [16]
1.0130732 0.9947757 0.9972645 1.0037991 0.9819055 1.0095863 1.0031614 0.9956582
1.0002406 0.99790967 1.0006 1.0209277 0.98892117 1.0003835 0.9966961 0.9898593
00000000: 62ac 813f 9fa9 7e3f ba4c 7f3f 7d7c 803f
00000010: 295e 7b3f 203a 813f 9867 803f 75e3 7e3f
00000020: e207 803f 0277 7f3f a913 803f c2ad 823f
00000030: f029 7d3f 910c 803f 7a27 7f3f 6b67 7d3f

bias f4 [16]
-0.013536406 -0.008988011 0.001895648 -0.0140190795 0.015974525 0.016890798 -0.004633048 -0.013458205
0.009481317 -0.008530953 -0.0047218176 0.013138579 0.0062235794 -0.0013610922 0.0005617972 -0.007512859
00000000: cdc7 5dbc 7342 13bc 6477 f83a 48b0 65bc
00000010: 02dd 823c 925e 8a3c d3d0 97bb ce7f 5cbc
00000020: 8757 1b3c 69c5 0bbc 7ab9 9abb 3243 573c
00000030: 2bef cb3b ad66 b2ba 9245 133a 6e2e f6bb

mask f4 [3]
0.0003895866 -0.002240079 0.0021194622
00000000: 6e41 cc39 4ace 12bb ade6 0a3b

weight f4 [3]
1.0044843 0.9934798 1.0000101
00000000: f192 803f b154 7e3f 5500 803f

bias f4 [3]
0.008859948 -0.007846631 -1.4542238e-06
00000000: 5129 113c 288f 00bc c02e c3b5

weight f4 [3, 168]
-0.12659001 -0.033433415 0.019749064 0.027710155 -0.09536357 0.043868653 -0.03725257 0.05980987
-0.020042332 0.006041313 0.10989681 0.07938194 0.1539108 0.12125584 -0.3055161 -0.0063417014
0.058912665 0.17785893 -0.013167759 -0.13266078 0.034981567 -0.15528828 0.10194812 -0.16858724
0.059094787 -0.022714335 0.063444644 0.1705977 0.13159716 0.1014342 -0.010580588 -0.07556169
-0.21117568 0.050241478 -0.13623647 -0.023569664 -0.009785253 -0.0035847512 -0.21215476 -0.016022066
0.16286635 -0.008640787 -0.13160251 0.0063055446 -0.05923398 -0.050836746 -0.032317236 -0.10801097
-0.17778811 0.011739173 0.11578311 -0.03359713 -0.12397934 0.029041616 -0.050967075 -0.013245911
-0.19214547 0.1426927 -0.027874043 0.017825408 -0.1062083 -0.098132305 -0.22505493 -0.0016090163
0.09584426 0.044626515 0.07369815 0.2661616 -0.16055414 -0.091069125 -0.05471039 0.022914225
0.03703117 -0.07708468 -0.121714875 -0.05429264 0.053764455 -0.22386739 -0.110620625 -0.08182657
-0.0652997 -0.26481724 -0.23781767 0.36948317 0.08615904 -0.14321299 -0.0402122 -0.015676504
-0.15421063 0.0666762 0.20327537 0.037165493 0.03226666 0.13229601 -0.011606334 0.07337402
0.12249543 -0.074261464 0.14015003 -0.2629714 0.09623297 0.14283131 0.06790639 -0.016611595
-0.0088143125 -0.06778646 0.07368075 -0.104864515 -0.09397601 0.23510402 -0.10366924 -0.028801657
-0.11885739 0.012038619 0.17185117 -0.014482411 -0.06287434 -0.079831816 0.0989253 -0.055342723
0.12008488 0.11487907 0.08149245 0.03747736 -0.044539537 -0.030801693 -0.06760796 0.14728877
-0.074028626 0.060943447 -0.15702857 -0.09207012 0.018942393 0.0020923961 -0.030946594 0.09778299
-0.07606835 -0.006817261 -0.0076933657 0.09753989 -0.019725183 0.05153673 0.026439112 0.124662355
-0.073897555 0.03142759 0.06251979 0.07015416 -0.07810734 -0.19480224 -0.05665162 -0.017312754
0.14411177 -0.15966262 -0.24241666 0.052707545 0.1377047 0.03850744 -0.102984495 0.1693558
-0.09137694 -0.04422228 -0.12154138 -0.0175958 -0.05143882 -0.083819814 0.019613951 -0.095503785
-0.16797857 -0.0008853429 0.05461203 -0.078068025 -0.09126943 -0.09275189 0.079824276 -0.15448888
0.11013181 0.1372456 -0.16253215 0.005695515 -0.01968499 0.035823118 -0.059724737 -0.079047635
0.12294486 0.06333361 -0.06099928 -0.21936715 0.03686121 0.050657116 -0.017357541 0.24418908
0.08060852 0.03479706 0.14563924 0.031458806 0.036550082 -0.0023185778 0.0025596912 0.21914165
0.0032406815 0.0003497286 -0.0027627149 0.09595039 0.23264685 -0.03004548 0.07260941 -0.19352813
0.025023758 0.17021751 -0.06489001 0.14924605 -0.12809546 -0.11016992 0.07349078 -0.18621407
0.026483152 -0.038572904 0.02020118 0.111154966 0.08602597 0.0012720515 0.1250964 -0.20455366
0.11127012 0.014556365 -0.05333593 0.22293568 0.0011250685 -0.1404992 0.14826195 -0.17736669
0.11841748 0.07324019 0.06278549 -0.010336106 0.14329949 0.020415772 -0.008293802 0.12621658
-0.0050384863 0.048536662 0.043852262 0.020293595 0.04682659 0.03675185 -0.09807301 -0.0030955772
-0.003673719 -0.11814009 0.13713543 0.11252542 0.21861376 -0.14589766 -0.0031951044 -0.16313232
00000000: d0a0 01be 7af1 08bd cac8 a13c 6800 e33c
00000010: fa4d c3bd 9eaf 333d 2796 18bd 32fb 743d
00000020: d12f a4bc 35f6 c53b 9411 e13d 0093 a23d
00000030: cb9a 1d3e fb54 f83d 9b6c 9cbe 0cce cfbb
00000040: 684e 713d a720 363e 96bd 57bc 3ad8 07be
00000050: d548 0f3d e403 1fbe 2dca d03d 22a2 2cbe
00000060: 600d 723d 6a13 babc 44ef 813d 2ab1 2e3e
00000070: 68c1 063e bcbc cf3d 345a 2dbc 16c0 9abd
00000080: 703e 58be 02ca 4d3d 9381 0bbe 2b15 c1bc
00000090: 5352 20bc 25ee 6abb 193f 59be b540 83bc
000000a0: 70c6 263e 1692 0dbc cfc2 06be be9e ce3b
000000b0: 549f 72bd 313a 50bd 145f 04bd db34 ddbd
000000c0: 160e 36be a955 403c b21f ed3d 259d 09bd
000000d0: e1e8 fdbd afe8 ed3c dac2 50bd 6105 59bc
000000e0: c8c1 44be 091e 123e 1b58 e4bc 9706 923c
000000f0: bd83 d9bd 97f9 c8bd cd74 66be a1e5 d2ba
00000100: ff49 c43d 4bca 363d 0eef 963d 5546 883e
00000110: 4e68 24be 7382 babd 0018 60bd 9db6 bb3c
00000120: ffad 173d 93de 9dbd a645 f9bd f661 5ebd
00000130: 1e38 5c3d 7e3d 65be 118d e2bd b094 a7bd
00000140: d9bb 85bd 2096 87be 7a86 73be e62c bd3e
00000150: 2774 b03d 6da6 12be 8cb5 24bd 036c 80bc
00000160: 64e9 1dbe 888d 883d 6b27 503e d83a 183d
00000170: 0c2a 043d 9b78 073e 7e28 3ebc 1e45 963d
00000180: e2de fa3d 6516 98bd 7d83 0f3e 30a4 86be
00000190: cb15 c53d 5f42 123e 8112 8b3d 0a15 88bc
000001a0: e869 10bc a1d3 8abd efe5 963d 35c3 d6bd
000001b0: 7f76 c0bd 1cbf 703e 8a50 d4bd 74f1 ebbc
000001c0: 816b f3bd a13d 453c c1f9 2f3e a247 6dbc
000001d0: 43c4 80bd dd7e a3bd 5999 ca3d 0daf 62bd
000001e0: 10ef f53d b845 eb3d 83e5 a63d dc81 193d
000001f0: 176f 36bd d553 fcbc 0b76 8abd ded2 163e
00000200: 529c 97bd d69f 793d 19cc 20be 428f bcbd
00000210: 142d 9b3c 9520 093b b683 fdbc 7342 c83d
00000220: b9c9 9bbd 5563 dfbb a118 fcbb fec2 c73d
00000230: b596 a1bc 2e18 533d d696 d83c fa4e ff3d
00000240: 9a57 97bd 37ba 003d 600a 803d fcac 8f3d
00000250: bef6 9fbd 3d7a 47be 870b 68bd 7ad3 8dbc
00000260: 0992 133e 997e 23be 133c 78be dee3 573d
00000270: 7602 0d3e fab9 1d3d 89e9 d2bd 9b6b 2d3e
00000280: d523 bbbd 6c22 35bd b0ea f8bd 1125 90bc
00000290: 83b1 52bd b9a9 abbd 70ad a03c 7d97 c3bd
000002a0: 9302 2cbe 5b16 68ba ddb0 5f3d 21e2 9fbd
000002b0: 78eb babd b4f4 bdbd e97a a33d 5532 1ebe
000002c0: c98c e13d 1c8a 0c3e d46e 26be 71a1 ba3b
000002d0: 6b42 a1bc 43bb 123d eda1 74bd bae3 a1bd
000002e0: 84ca fb3d 0db5 813d 62da 79bd c8a1 60be
000002f0: c8fb 163d d67d 4f3d 6731 8ebc b40c 7a3e
00000300: 1416 a53d 5d87 0e3d 7422 153e f3da 003d
00000310: 8ab5 153d 48f3 17bb 7ec0 273b ab66 603e
00000320: 9d61 543b c75b b739 aa0e 35bb a381 c43d
00000330: fa3a 6e3e f021 f6bc 3eb4 943d 3d2c 46be
00000340: a0fe cc3c 804d 2e3e 0ee5 84bd f5d3 183e
00000350: 752b 03be c4a0 e1bd 5682 963d e7ae 3ebe
00000360: 32f3 d83c 9ffe 1dbd f27c a53c 37a5 e33d
00000370: 622e b03d f7ba a63a 4519 003e 8476 51be
00000380: 97e1 e33d d27d 6e3c c776 5abd 4049 643e
00000390: 0977 933a 06df 0fbe fbd1 173e 9d9f 35be
000003a0: dd84 f23d f4fe 953d ae95 803d c558 29bc
000003b0: 1abd 123e fa3e a73c bae2 07bc eb3e 013e
000003c0: e319 a5bb 61ce 463d 6e9e 333d c13e a63c
000003d0: 3dcd 3f3d 1c89 163d 81da c8bd 2bdf 4abb
000003e0: c7c2 70bb 6ef3 f1bd 3b6d 0c3e ba73 e63d
000003f0: 49dc 5f3e 3266 15be f564 51bb 290c 27be

bias f4 [3]
0.0010132231 -0.0019282723 0.0036269017
00000000: 20ce 843a 15be fcba 50b1 6d3b

weight f4 [3, 16]
0.06959197 -0.059013613 0.37862328 -0.29244345 -0.36811078 -0.13783927 0.2592095 -0.23086806
0.48657203 0.26819903 -0.24351831 0.12598334 0.5226415 0.017175294 -0.18638855 0.1536018
0.34674284 -0.36894524 -0.34323937 -0.27426532 -0.40810612 -0.491579 0.35531354 -0.2753138
-0.08274601 0.28282946 0.015978845 0.09919999 0.21075456 0.46662626 -0.26379237 -0.06349443
0.27260807 0.4250225 -0.4656701 -0.33895382 0.20385714 -0.38624468 -0.2894249 0.15282936
0.15740271 0.25281972 -0.13206027 0.5105614 -0.5455656 0.42551374 0.34885523 0.10037003
00000000: 3c86 8e3d 42b8 71bd e9da c13e 26bb 95be
00000010: 0479 bcbe bd25 0dbe 1cb7 843e ad68 6cbe
00000020: f81f f93e 6251 893e dd5c 79be c701 013e
00000030: d5cb 053f 34b3 8c3c a4dc 3ebe ca49 1d3e
00000040: 4788 b13e 64e6 bcbe 12bd afbe 816c 8cbe
00000050: 49f3 d0be 3eb0 fbbe a8eb b53e eef5 8cbe
00000060: bd76 a9bd 06cf 903e 11e6 823c 5d29 cb3d
00000070: 0bd0 573e a3e9 ee3e cb0f 87be 5e09 82bd
00000080: 4993 8b3e 8d9c d93e 506c eebe 5b8b adbe
00000090: edbf 503e ddc1 c5be 802f 94be 4d7f 1c3e
000000a0: 2d2e 213e 9671 813e cf3a 07be 27b4 023f
000000b0: 30aa 0bbf f0dc d93e 279d b23e cd8e cd3d

weight f4 [3, 3]
-0.20172347 1.2559317 -0.1929164 -0.27747026 -0.4085609 0.44212332 -0.6681131 0.46640208
-0.8544227
00000000: 9990 4ebe 5fc2 a03f e08b 45be 9510 8ebe
00000010: e52e d1be fd5d e23e 7609 2bbf 41cc ee3e
00000020: 72bb 5abf

bias f4 [3]
-0.0007298159 0.0074792616 -0.005518013
00000000: 1e51 3fba 9814 f53b 73d0 b4bb

weight f4 [6, 3]
-0.72985846 0.3968164 0.6997469 -0.06530655 -0.6818083 0.7886198 0.5790201 0.3622109
0.048065964 0.6762875 0.45340595 -0.80049795 -0.72152734 -0.7785237 0.7900367 0.42134178
-0.69731843 0.45866555
00000000: 01d8 3abf 852b cb3e 9d22 333f 71bf 85bd
00000010: fd8a 2ebf fde2 493f a93a 143f b573 b93e
00000020: d1e0 443d 2d21 2d3f d324 e83e 6fed 4cbf
00000030: 04b6 38bf 544d 47bf d83f 4a3f 1cba d73e
00000040: 7683 32bf 36d6 ea3e

bias f4 [6]
0.004855207 -0.006861221 0.0006259217 0.002379701 -0.00048919226 -1.6278958e-05
00000000: 6e18 9f3b 18d4 e0bb e514 243a c2f4 1b3b
00000010: 233d 00ba cc8e 88b7

weight f4 [3]
1.006737 0.9891533 0.9964709
00000000: c2dc 803f 2739 7d3f b818 7f3f

bias f4 [3]
0.009589295 -0.010392402 0.003574053
00000000: 6b1c 1d3c e544 2abc a93a 6a3b

mask f4 [16]
0.004608043 -0.0040216027 0.0012041088 -0.00039961966 -0.0003065828 -0.0007298447 0.00686808 0.008178698
-0.0012176894 -0.00441695 -0.0012552888 -0.000598726 0.0022441216 -0.009296234 -0.000640169 -0.0011027686
00000000: 11ff 963b a6c7 83bb 30d3 9d3a 0b84 d1b9
00000010: d9bc a0b9 0c53 3fba a10d e13b f2ff 053c
00000020: e09a 9fba 10bc 90bb 8188 a4ba d2f3 1cba
00000030: 1d12 133b 3b4f 18bc 04d1 27ba c68a 90ba

weight f4 [16]
1.0073881 0.99470186 0.99803 1.0023389 0.99634236 0.9980022 1.0114118 1.0105681
0.9979021 0.9936053 0.9955925 0.9996732 1.0031556 0.98789793 1.0004941 0.9967932
00000000: 18f2 803f c8a4 7e3f e57e 7f3f a44c 803f
00000010: 4b10 7f3f 127d 7f3f f175 813f 4c5a 813f
00000020: 8376 7f3f eb5c 7e3f 26df 7e3f 95ea 7f3f
00000030: 6767 803f e1e6 7c3f 3110 803f d72d 7f3f

bias f4 [16]
0.006358491 0.0061986004 -0.008799461 0.00901465 -0.010060539 -0.0038484405 0.009858408 -0.009515326
-0.0034295314 0.006503842 -0.0071214074 0.00023923314 -0.00439063 0.010795866 0.0025037262 -0.0036189263
00000000: e35a d03b a11d cb3b 9d2b 10bc 2fb2 133c
00000010: f5d4 24bc 1e36 7cbb 2985 213c 2be6 1bbc
00000020: fdc1 60bb 2e1e d53b b25a e9bb a8da 7a39
00000030: 46df 8fbb 25e1 303c 8e15 243b 822b 6dbb

weight f4 [16, 56]
0.32732153 0.055749007 0.092400484 -0.0035233435 -0.044221506 0.18940587 -0.2112607 -0.2286622
-0.18377364 -0.21797822 -0.077761084 0.27856192 0.6549317 -0.14929904 0.015453055 0.007092721
-0.028340831 -0.20756696 -0.36108506 0.010198061 0.0773278 -0.05795744 -0.32405603 -0.18250264
0.08975527 -0.06506448 -0.06388589 0.09559722 0.00583147 0.028629817 0.34546292 -0.29091793
-0.2871956 0.047038432 0.082107596 -0.034839097 -0.17758055 0.037825074 0.18431109 -0.0637735
0.058405705 -0.30889493 0.06097521 0.123164706 0.07243796 -0.3684495 -0.49647036 0.07274242
-0.22485912 -0.17225896 -0.14478607 -0.38051048 -0.060104366 -0.25859302 -0.03228314 -0.17475194
-0.015608601 0.27338108 0.07292786 0.23757122 -0.33076128 -0.03227545 0.16309485 0.19096151
-0.09646836 -0.009643499 0.3393674 0.09204991 0.050452348 -0.03327713 0.1104369 0.17141616
0.045685805 0.02657599 -0.0667493 0.045378394 0.10853732 -0.46970275 0.17905703 -0.11141908
0.10456635 0.20290397 -0.017138662 0.12118286 0.11460673 0.17055787 0.09091199 -0.18090737
0.002646512 0.044004332 -0.17235576 -0.0005834229 -0.3819711 0.12398443 0.17353562 0.116480894
0.0004930116 -0.015484922 -0.021281792 -0.30570045 0.265462 -0.14168966 0.19771579 -0.3302943
-0.015592254 -0.41078487 0.15050317 0.15967074 -0.074009106 -0.32516736 -0.24463823 0.06586314
-0.5430874 -0.026325194 -0.107595086 -0.5694018 -0.26154816 0.22810782 -0.17839056 0.08334462
0.29421774 0.08855165 0.07842707 -0.0377632 -0.025137931 -0.10635686 -0.09776877 -0.04540509
-0.14609404 0.04100913 -0.13328658 -0.105325125 0.14148405 0.0143155325 0.15985431 -0.12040094
0.24220389 -0.06934147 0.08964413 -0.12120741 0.07014269 0.09623636 -0.17213966 0.258489
-0.0326706 -0.10956416 0.10760775 -0.17876633 0.07302092 -0.18186592 -0.2707228 -0.02947632
-0.0631105 -0.1233429 -0.029490467 -0.020303145 0.026003048 0.007902326 0.30310857 -0.126947
0.25038895 -0.028742945 -0.22790973 0.4240755 0.21758169 0.030163938 -0.14672172 -0.027333345
0.12921734 0.0036846471 0.08927325 -0.16175127 0.3893945 -0.1490897 0.13694273 0.05869794
0.01983534 0.06482741 -0.3854967 0.44315565 -0.04791887 0.20248152 0.014161461 0.08733244
0.13159607 -0.08987054 0.10141665 0.008867296 -0.41630447 -0.028801331 -0.00042015497 0.004321082
0.039240856 -0.015413051 -0.08703071 0.18920022 -0.10253775 0.2451715 -0.51710045 -0.22845994
-0.15002374 0.05584746 -0.16719525 -0.23459467 0.10632514 -0.0922041 -0.17369442 -0.07579719
0.13491316 -0.20333952 0.18328835 -0.056184053 0.1740687 -0.03887677 0.2608345 0.033934496
-0.03666281 -0.12868209 0.18550766 0.3658451 0.3855795 0.079446696 0.09895836 0.05089198
0.1439509 -0.18933669 0.23912022 0.16853575 -0.13053733 -0.27034274 -0.41225255 0.13301612
0.036849804 0.062256277 -0.060221206 0.09142992 0.052422687 -0.0049608215 0.08776962 -0.2974605
0.0688165 -0.12191 -0.0031078379 0.2839104 0.03804886 -0.24578997 -0.084603906 -0.07553522
0.18299401 0.38998038 -0.095034115 0.059647985 -0.12888792 -0.049243923 0.20921658 -0.06979953
00000000: b096 a73e 1259 643d 773c bd3d e5e7 66bb
00000010: 9c21 35bd 9df3 413e ba54 58be 6c26 6abe
00000020: 282f 3cbe af35 5fbe 3441 9fbd ab9f 8e3e
00000030: 9ba9 273f d9e1 18be cf2e 7d3c 0e6a e83b
00000040: 082b e8bc 6f8c 54be 24e0 b8be c515 273c
00000050: 0a5e 9e3d c864 6dbd acea a5be f9e1 3abe
00000060: 9cd1 b73d 8740 85bd 9bd6 82bd 7ac8 c33d
00000070: ea15 bf3b 1489 ea3c 84e0 b03e 32f3 94be
00000080: 4d0b 93be 5fab 403d 0728 a83d 71b3 0ebd
00000090: add7 35be 77ee 1a3d 0cbc 3c3e ae9b 82bd
000000a0: d23a 6f3d 7a27 9ebe 24c1 793d c73d fc3d
000000b0: 5a5a 943d 6aa5 bcbe 5d31 febe faf9 943d
000000c0: 7841 66be a764 30be cd42 14be 45d2 c2be
000000d0: ff2f 76bd 4e66 84be 533b 04bd 2cf2 32be
000000e0: 38bb 7fbc 9bf8 8b3e 345b 953d df45 733e
000000f0: 8b59 a9be 4333 04bd 5602 273e 6a8b 433e
00000100: 3491 c5bd c4ff 1dbc 90c1 ad3e aa84 bc3d
00000110: 1fa7 4e3d 9a4d 08bd be2c e23d b887 2f3e
00000120: 0a21 3b3d e4b5 d93c dbb3 88bd b2de 393d
00000130: d048 de3d e17c f0be ba5a 373e b02f e4bd
00000140: e226 d63d 0fc6 4f3e 6166 8cbc b82e f83d
00000150: efb6 ea3d b9a6 2e3e 1130 ba3d c83f 39be
00000160: 1a71 2d3b e33d 343d 077e 30be d9f0 18ba
00000170: b791 c3be 8deb fd3d 52b3 313e 898d ee3d
00000180: 733d 013a 78b4 7dbc 2757 aebc c584 9cbe
00000190: a3ea 873e 1817 11be 0276 4a3e 561c a9be
000001a0: a776 7fbc 6552 d2be 811d 1a3e ba80 233e
000001b0: 1692 97bd 567c a6be 7282 7abe 41e3 863d
000001c0: c707 0bbf efa7 d7bc d05a dcbd 51c4 11bf
000001d0: a4e9 85be 1995 693e 04ac 36be 96b0 aa3d
000001e0: b5a3 963e 915a b53d 5f9e a03d 96ad 1abd
000001f0: 10ee cdbc a0d1 d9bd fe3a c8bd b0fa 39bd
00000200: ad99 15be 31f9 273d 477c 08be b3b4 d7bd
00000210: 32e1 103e b28b 6a3c d9b0 233e c594 f6bd
00000220: 4c04 783e e702 8ebd 5797 b73d 973b f8bd
00000230: f8a6 8f3d 9217 c53d 6145 30be ac58 843e
00000240: 9bd1 05bd 2d63 e0bd 7461 dc3d 850e 37be
00000250: fe8b 953d 0f3b 3abe 2e9c 8abe 5378 f1bc
00000260: 1440 81bd 349b fcbd fe95 f1bc c852 a6bc
00000270: 5804 d53c c278 013c 0c31 9b3e 65fe 01be
00000280: fb32 803e 5376 ebbc 2b61 69be 6d20 d93e
00000290: bccd 5e3e 5d1a f73c 383e 16be 2eea dfbc
000002a0: 8d51 043e 1f7a 713b e5d4 b63d 20a2 25be
000002b0: b75e c73e f8aa 18be b73a 0c3e 406d 703d
000002c0: b97d a23c 3cc4 843d d35f c5be 4ce5 e23e
000002d0: 9446 44bd 5157 4f3e 7905 683c 5adb b23d
000002e0: 1fc1 063e 0c0e b8bd 88b3 cf3d 2348 113c
000002f0: dc25 d5be c5f0 ebbc 3f48 dcb9 dd97 8d3b
00000300: 05bb 203d 0587 7cbc 283d b2bd b4bd 413e
00000310: 50ff d1bd 3d0e 7b3e b260 04bf 67f1 69be
00000320: d39f 19be 4ec0 643d 3b35 2bbe 9639 70be
00000330: ffc0 d93d 81d5 bcbd f3dc 31be 8f3b 9bbd
00000340: ad26 0a3e 3c38 50be f1af 3b3e 4021 66bd
00000350: 113f 323e 3f3d 1fbd 198c 853e e6fe 0a3d
00000360: be2b 16bd 3dc5 03be b8f5 3d3e 0d50 bb3e
00000370: ad6a c53e f3b4 a23d aeaa ca3d 1c74 503d
00000380: dd67 133e 7ae1 41be eedb 743e a394 2c3e
00000390: 94ab 05be 5d6a 8abe c412 d3be 6135 083e
000003a0: d2ef 163d 7000 7f3d 83aa 76bd 9c3f bb3d
000003b0: 2cb9 563d 638e a2bb 8fc0 b33d be4c 98be
000003c0: aaef 8c3d f3ab f9bd deac 4bbb b45c 913e
000003d0: 1fd9 1b3d 5eb0 7bbe d044 adbd 36b2 9abd
000003e0: c862 3b3e 82ab c73e 3fa1 c2bd 7251 743d
000003f0: 32fb 03be ffb3 49bd df3c 563e 0ef3 8ebd

bias f4 [16]
0.0023098676 0.0072361985 -0.0004233612 -0.0031019736 -0.0050022593 0.0004358777 -0.0005346427 0.001279141
0.004623478 -0.0052231206 0.0039536078 0.00486687 -0.004390208 0.0019648243 0.0016440249 -0.0063908617
00000000: 2661 173b a21d ed3b 94f6 ddb9 7b4a 4bbb
00000010: fee9 a3bb 8486 e439 4427 0cba daa8 a73a
00000020: 8b80 973b b626 abbb 448d 813b 447a 9f3b
00000030: bcdb 8fbb 48c4 003b 527c d73a 6f6a d1bb
